<?xml version="1.0"?>
<net name="torch-jit-export" version="11">
	<layers>
		<layer id="0" name="input1" type="Parameter" version="opset1">
			<data shape="1,1,64,320" element_type="f32" />
			<output>
				<port id="0" precision="FP32" names="input1">
					<dim>1</dim>
					<dim>1</dim>
					<dim>64</dim>
					<dim>320</dim>
				</port>
			</output>
		</layer>
		<layer id="1" name="Constant_2210" type="Const" version="opset1">
			<data element_type="f32" shape="1, 1, 97" offset="0" size="388" />
			<output>
				<port id="0" precision="FP32">
					<dim>1</dim>
					<dim>1</dim>
					<dim>97</dim>
				</port>
			</output>
		</layer>
		<layer id="2" name="Constant_2205" type="Const" version="opset1">
			<data element_type="f32" shape="1, 1, 256" offset="388" size="1024" />
			<output>
				<port id="0" precision="FP32">
					<dim>1</dim>
					<dim>1</dim>
					<dim>256</dim>
				</port>
			</output>
		</layer>
		<layer id="3" name="Constant_2200" type="Const" version="opset1">
			<data element_type="f32" shape="1, 1, 256" offset="1412" size="1024" />
			<output>
				<port id="0" precision="FP32">
					<dim>1</dim>
					<dim>1</dim>
					<dim>256</dim>
				</port>
			</output>
		</layer>
		<layer id="4" name="Constant_2136" type="Const" version="opset1">
			<data element_type="f32" shape="1, 1, 1, 1" offset="2436" size="4" />
			<output>
				<port id="0" precision="FP32">
					<dim>1</dim>
					<dim>1</dim>
					<dim>1</dim>
					<dim>1</dim>
				</port>
			</output>
		</layer>
		<layer id="5" name="Constant_2137" type="Const" version="opset1">
			<data element_type="f32" shape="1, 1, 1, 1" offset="2440" size="4" />
			<output>
				<port id="0" precision="FP32">
					<dim>1</dim>
					<dim>1</dim>
					<dim>1</dim>
					<dim>1</dim>
				</port>
			</output>
		</layer>
		<layer id="6" name="Constant_2138" type="Const" version="opset1">
			<data element_type="f32" shape="1, 1, 1, 1" offset="2436" size="4" />
			<output>
				<port id="0" precision="FP32">
					<dim>1</dim>
					<dim>1</dim>
					<dim>1</dim>
					<dim>1</dim>
				</port>
			</output>
		</layer>
		<layer id="7" name="Constant_2139" type="Const" version="opset1">
			<data element_type="f32" shape="1, 1, 1, 1" offset="2440" size="4" />
			<output>
				<port id="0" precision="FP32">
					<dim>1</dim>
					<dim>1</dim>
					<dim>1</dim>
					<dim>1</dim>
				</port>
			</output>
		</layer>
		<layer id="8" name="DequantizeLinear_input1_1" type="FakeQuantize" version="opset1">
			<data levels="256" auto_broadcast="numpy" />
			<input>
				<port id="0" precision="FP32">
					<dim>1</dim>
					<dim>1</dim>
					<dim>64</dim>
					<dim>320</dim>
				</port>
				<port id="1" precision="FP32">
					<dim>1</dim>
					<dim>1</dim>
					<dim>1</dim>
					<dim>1</dim>
				</port>
				<port id="2" precision="FP32">
					<dim>1</dim>
					<dim>1</dim>
					<dim>1</dim>
					<dim>1</dim>
				</port>
				<port id="3" precision="FP32">
					<dim>1</dim>
					<dim>1</dim>
					<dim>1</dim>
					<dim>1</dim>
				</port>
				<port id="4" precision="FP32">
					<dim>1</dim>
					<dim>1</dim>
					<dim>1</dim>
					<dim>1</dim>
				</port>
			</input>
			<output>
				<port id="5" precision="FP32" names="dq_output_input1_1">
					<dim>1</dim>
					<dim>1</dim>
					<dim>64</dim>
					<dim>320</dim>
				</port>
			</output>
		</layer>
		<layer id="9" name="FeatureExtraction.ConvNet.0.weight" type="Const" version="opset1">
			<data element_type="i8" shape="32, 1, 3, 3" offset="2444" size="288" />
			<output>
				<port id="0" precision="I8">
					<dim>32</dim>
					<dim>1</dim>
					<dim>3</dim>
					<dim>3</dim>
				</port>
			</output>
		</layer>
		<layer id="10" name="Convert_2410" type="Convert" version="opset1">
			<data destination_type="f32" />
			<input>
				<port id="0" precision="I8">
					<dim>32</dim>
					<dim>1</dim>
					<dim>3</dim>
					<dim>3</dim>
				</port>
			</input>
			<output>
				<port id="1" precision="FP32">
					<dim>32</dim>
					<dim>1</dim>
					<dim>3</dim>
					<dim>3</dim>
				</port>
			</output>
		</layer>
		<layer id="11" name="Constant_2308" type="Const" version="opset1">
			<data element_type="f32" shape="1, 1, 1, 1" offset="2732" size="4" />
			<output>
				<port id="0" precision="FP32">
					<dim>1</dim>
					<dim>1</dim>
					<dim>1</dim>
					<dim>1</dim>
				</port>
			</output>
		</layer>
		<layer id="12" name="DequantizeLinear_FeatureExtraction.ConvNet.0.weight_1" type="Multiply" version="opset1">
			<data auto_broadcast="numpy" />
			<input>
				<port id="0" precision="FP32">
					<dim>32</dim>
					<dim>1</dim>
					<dim>3</dim>
					<dim>3</dim>
				</port>
				<port id="1" precision="FP32">
					<dim>1</dim>
					<dim>1</dim>
					<dim>1</dim>
					<dim>1</dim>
				</port>
			</input>
			<output>
				<port id="2" precision="FP32" names="dq_output_FeatureExtraction.ConvNet.0.weight_1">
					<dim>32</dim>
					<dim>1</dim>
					<dim>3</dim>
					<dim>3</dim>
				</port>
			</output>
		</layer>
		<layer id="13" name="Conv_0/WithoutBiases" type="Convolution" version="opset1">
			<data strides="1, 1" dilations="1, 1" pads_begin="1, 1" pads_end="1, 1" auto_pad="explicit" />
			<input>
				<port id="0" precision="FP32">
					<dim>1</dim>
					<dim>1</dim>
					<dim>64</dim>
					<dim>320</dim>
				</port>
				<port id="1" precision="FP32">
					<dim>32</dim>
					<dim>1</dim>
					<dim>3</dim>
					<dim>3</dim>
				</port>
			</input>
			<output>
				<port id="2" precision="FP32">
					<dim>1</dim>
					<dim>32</dim>
					<dim>64</dim>
					<dim>320</dim>
				</port>
			</output>
		</layer>
		<layer id="14" name="Reshape_113" type="Const" version="opset1">
			<data element_type="f32" shape="1, 32, 1, 1" offset="2736" size="128" />
			<output>
				<port id="0" precision="FP32">
					<dim>1</dim>
					<dim>32</dim>
					<dim>1</dim>
					<dim>1</dim>
				</port>
			</output>
		</layer>
		<layer id="15" name="Conv_0" type="Add" version="opset1">
			<data auto_broadcast="numpy" />
			<input>
				<port id="0" precision="FP32">
					<dim>1</dim>
					<dim>32</dim>
					<dim>64</dim>
					<dim>320</dim>
				</port>
				<port id="1" precision="FP32">
					<dim>1</dim>
					<dim>32</dim>
					<dim>1</dim>
					<dim>1</dim>
				</port>
			</input>
			<output>
				<port id="2" precision="FP32" names="46">
					<dim>1</dim>
					<dim>32</dim>
					<dim>64</dim>
					<dim>320</dim>
				</port>
			</output>
		</layer>
		<layer id="16" name="Constant_2144" type="Const" version="opset1">
			<data element_type="f32" shape="1, 1, 1, 1" offset="2436" size="4" />
			<output>
				<port id="0" precision="FP32">
					<dim>1</dim>
					<dim>1</dim>
					<dim>1</dim>
					<dim>1</dim>
				</port>
			</output>
		</layer>
		<layer id="17" name="Constant_2145" type="Const" version="opset1">
			<data element_type="f32" shape="1, 1, 1, 1" offset="2864" size="4" />
			<output>
				<port id="0" precision="FP32">
					<dim>1</dim>
					<dim>1</dim>
					<dim>1</dim>
					<dim>1</dim>
				</port>
			</output>
		</layer>
		<layer id="18" name="Constant_2146" type="Const" version="opset1">
			<data element_type="f32" shape="1, 1, 1, 1" offset="2436" size="4" />
			<output>
				<port id="0" precision="FP32">
					<dim>1</dim>
					<dim>1</dim>
					<dim>1</dim>
					<dim>1</dim>
				</port>
			</output>
		</layer>
		<layer id="19" name="Constant_2147" type="Const" version="opset1">
			<data element_type="f32" shape="1, 1, 1, 1" offset="2864" size="4" />
			<output>
				<port id="0" precision="FP32">
					<dim>1</dim>
					<dim>1</dim>
					<dim>1</dim>
					<dim>1</dim>
				</port>
			</output>
		</layer>
		<layer id="20" name="DequantizeLinear_47_1" type="FakeQuantize" version="opset1">
			<data levels="256" auto_broadcast="numpy" />
			<input>
				<port id="0" precision="FP32">
					<dim>1</dim>
					<dim>32</dim>
					<dim>64</dim>
					<dim>320</dim>
				</port>
				<port id="1" precision="FP32">
					<dim>1</dim>
					<dim>1</dim>
					<dim>1</dim>
					<dim>1</dim>
				</port>
				<port id="2" precision="FP32">
					<dim>1</dim>
					<dim>1</dim>
					<dim>1</dim>
					<dim>1</dim>
				</port>
				<port id="3" precision="FP32">
					<dim>1</dim>
					<dim>1</dim>
					<dim>1</dim>
					<dim>1</dim>
				</port>
				<port id="4" precision="FP32">
					<dim>1</dim>
					<dim>1</dim>
					<dim>1</dim>
					<dim>1</dim>
				</port>
			</input>
			<output>
				<port id="5" precision="FP32" names="dq_output_47_1">
					<dim>1</dim>
					<dim>32</dim>
					<dim>64</dim>
					<dim>320</dim>
				</port>
			</output>
		</layer>
		<layer id="21" name="MaxPool_2" type="MaxPool" version="opset8">
			<data strides="2, 2" dilations="1, 1" pads_begin="0, 0" pads_end="0, 0" kernel="2, 2" rounding_type="floor" auto_pad="explicit" index_element_type="i64" axis="0" />
			<input>
				<port id="0" precision="FP32">
					<dim>1</dim>
					<dim>32</dim>
					<dim>64</dim>
					<dim>320</dim>
				</port>
			</input>
			<output>
				<port id="1" precision="FP32" names="48">
					<dim>1</dim>
					<dim>32</dim>
					<dim>32</dim>
					<dim>160</dim>
				</port>
				<port id="2" precision="I64">
					<dim>1</dim>
					<dim>32</dim>
					<dim>32</dim>
					<dim>160</dim>
				</port>
			</output>
		</layer>
		<layer id="22" name="FeatureExtraction.ConvNet.3.weight" type="Const" version="opset1">
			<data element_type="i8" shape="64, 32, 3, 3" offset="2868" size="18432" />
			<output>
				<port id="0" precision="I8">
					<dim>64</dim>
					<dim>32</dim>
					<dim>3</dim>
					<dim>3</dim>
				</port>
			</output>
		</layer>
		<layer id="23" name="Convert_2564" type="Convert" version="opset1">
			<data destination_type="f32" />
			<input>
				<port id="0" precision="I8">
					<dim>64</dim>
					<dim>32</dim>
					<dim>3</dim>
					<dim>3</dim>
				</port>
			</input>
			<output>
				<port id="1" precision="FP32">
					<dim>64</dim>
					<dim>32</dim>
					<dim>3</dim>
					<dim>3</dim>
				</port>
			</output>
		</layer>
		<layer id="24" name="Constant_2462" type="Const" version="opset1">
			<data element_type="f32" shape="1, 1, 1, 1" offset="21300" size="4" />
			<output>
				<port id="0" precision="FP32">
					<dim>1</dim>
					<dim>1</dim>
					<dim>1</dim>
					<dim>1</dim>
				</port>
			</output>
		</layer>
		<layer id="25" name="DequantizeLinear_FeatureExtraction.ConvNet.3.weight_1" type="Multiply" version="opset1">
			<data auto_broadcast="numpy" />
			<input>
				<port id="0" precision="FP32">
					<dim>64</dim>
					<dim>32</dim>
					<dim>3</dim>
					<dim>3</dim>
				</port>
				<port id="1" precision="FP32">
					<dim>1</dim>
					<dim>1</dim>
					<dim>1</dim>
					<dim>1</dim>
				</port>
			</input>
			<output>
				<port id="2" precision="FP32" names="dq_output_FeatureExtraction.ConvNet.3.weight_1">
					<dim>64</dim>
					<dim>32</dim>
					<dim>3</dim>
					<dim>3</dim>
				</port>
			</output>
		</layer>
		<layer id="26" name="Conv_3/WithoutBiases" type="Convolution" version="opset1">
			<data strides="1, 1" dilations="1, 1" pads_begin="1, 1" pads_end="1, 1" auto_pad="explicit" />
			<input>
				<port id="0" precision="FP32">
					<dim>1</dim>
					<dim>32</dim>
					<dim>32</dim>
					<dim>160</dim>
				</port>
				<port id="1" precision="FP32">
					<dim>64</dim>
					<dim>32</dim>
					<dim>3</dim>
					<dim>3</dim>
				</port>
			</input>
			<output>
				<port id="2" precision="FP32">
					<dim>1</dim>
					<dim>64</dim>
					<dim>32</dim>
					<dim>160</dim>
				</port>
			</output>
		</layer>
		<layer id="27" name="Reshape_160" type="Const" version="opset1">
			<data element_type="f32" shape="1, 64, 1, 1" offset="21304" size="256" />
			<output>
				<port id="0" precision="FP32">
					<dim>1</dim>
					<dim>64</dim>
					<dim>1</dim>
					<dim>1</dim>
				</port>
			</output>
		</layer>
		<layer id="28" name="Conv_3" type="Add" version="opset1">
			<data auto_broadcast="numpy" />
			<input>
				<port id="0" precision="FP32">
					<dim>1</dim>
					<dim>64</dim>
					<dim>32</dim>
					<dim>160</dim>
				</port>
				<port id="1" precision="FP32">
					<dim>1</dim>
					<dim>64</dim>
					<dim>1</dim>
					<dim>1</dim>
				</port>
			</input>
			<output>
				<port id="2" precision="FP32" names="49">
					<dim>1</dim>
					<dim>64</dim>
					<dim>32</dim>
					<dim>160</dim>
				</port>
			</output>
		</layer>
		<layer id="29" name="Constant_2152" type="Const" version="opset1">
			<data element_type="f32" shape="1, 1, 1, 1" offset="2436" size="4" />
			<output>
				<port id="0" precision="FP32">
					<dim>1</dim>
					<dim>1</dim>
					<dim>1</dim>
					<dim>1</dim>
				</port>
			</output>
		</layer>
		<layer id="30" name="Constant_2153" type="Const" version="opset1">
			<data element_type="f32" shape="1, 1, 1, 1" offset="21560" size="4" />
			<output>
				<port id="0" precision="FP32">
					<dim>1</dim>
					<dim>1</dim>
					<dim>1</dim>
					<dim>1</dim>
				</port>
			</output>
		</layer>
		<layer id="31" name="Constant_2154" type="Const" version="opset1">
			<data element_type="f32" shape="1, 1, 1, 1" offset="2436" size="4" />
			<output>
				<port id="0" precision="FP32">
					<dim>1</dim>
					<dim>1</dim>
					<dim>1</dim>
					<dim>1</dim>
				</port>
			</output>
		</layer>
		<layer id="32" name="Constant_2155" type="Const" version="opset1">
			<data element_type="f32" shape="1, 1, 1, 1" offset="21560" size="4" />
			<output>
				<port id="0" precision="FP32">
					<dim>1</dim>
					<dim>1</dim>
					<dim>1</dim>
					<dim>1</dim>
				</port>
			</output>
		</layer>
		<layer id="33" name="DequantizeLinear_50_1" type="FakeQuantize" version="opset1">
			<data levels="256" auto_broadcast="numpy" />
			<input>
				<port id="0" precision="FP32">
					<dim>1</dim>
					<dim>64</dim>
					<dim>32</dim>
					<dim>160</dim>
				</port>
				<port id="1" precision="FP32">
					<dim>1</dim>
					<dim>1</dim>
					<dim>1</dim>
					<dim>1</dim>
				</port>
				<port id="2" precision="FP32">
					<dim>1</dim>
					<dim>1</dim>
					<dim>1</dim>
					<dim>1</dim>
				</port>
				<port id="3" precision="FP32">
					<dim>1</dim>
					<dim>1</dim>
					<dim>1</dim>
					<dim>1</dim>
				</port>
				<port id="4" precision="FP32">
					<dim>1</dim>
					<dim>1</dim>
					<dim>1</dim>
					<dim>1</dim>
				</port>
			</input>
			<output>
				<port id="5" precision="FP32" names="dq_output_50_1">
					<dim>1</dim>
					<dim>64</dim>
					<dim>32</dim>
					<dim>160</dim>
				</port>
			</output>
		</layer>
		<layer id="34" name="MaxPool_5" type="MaxPool" version="opset8">
			<data strides="2, 2" dilations="1, 1" pads_begin="0, 0" pads_end="0, 0" kernel="2, 2" rounding_type="floor" auto_pad="explicit" index_element_type="i64" axis="0" />
			<input>
				<port id="0" precision="FP32">
					<dim>1</dim>
					<dim>64</dim>
					<dim>32</dim>
					<dim>160</dim>
				</port>
			</input>
			<output>
				<port id="1" precision="FP32" names="51">
					<dim>1</dim>
					<dim>64</dim>
					<dim>16</dim>
					<dim>80</dim>
				</port>
				<port id="2" precision="I64">
					<dim>1</dim>
					<dim>64</dim>
					<dim>16</dim>
					<dim>80</dim>
				</port>
			</output>
		</layer>
		<layer id="35" name="FeatureExtraction.ConvNet.6.weight" type="Const" version="opset1">
			<data element_type="i8" shape="128, 64, 3, 3" offset="21564" size="73728" />
			<output>
				<port id="0" precision="I8">
					<dim>128</dim>
					<dim>64</dim>
					<dim>3</dim>
					<dim>3</dim>
				</port>
			</output>
		</layer>
		<layer id="36" name="Convert_2718" type="Convert" version="opset1">
			<data destination_type="f32" />
			<input>
				<port id="0" precision="I8">
					<dim>128</dim>
					<dim>64</dim>
					<dim>3</dim>
					<dim>3</dim>
				</port>
			</input>
			<output>
				<port id="1" precision="FP32">
					<dim>128</dim>
					<dim>64</dim>
					<dim>3</dim>
					<dim>3</dim>
				</port>
			</output>
		</layer>
		<layer id="37" name="Constant_2616" type="Const" version="opset1">
			<data element_type="f32" shape="1, 1, 1, 1" offset="95292" size="4" />
			<output>
				<port id="0" precision="FP32">
					<dim>1</dim>
					<dim>1</dim>
					<dim>1</dim>
					<dim>1</dim>
				</port>
			</output>
		</layer>
		<layer id="38" name="DequantizeLinear_FeatureExtraction.ConvNet.6.weight_1" type="Multiply" version="opset1">
			<data auto_broadcast="numpy" />
			<input>
				<port id="0" precision="FP32">
					<dim>128</dim>
					<dim>64</dim>
					<dim>3</dim>
					<dim>3</dim>
				</port>
				<port id="1" precision="FP32">
					<dim>1</dim>
					<dim>1</dim>
					<dim>1</dim>
					<dim>1</dim>
				</port>
			</input>
			<output>
				<port id="2" precision="FP32" names="dq_output_FeatureExtraction.ConvNet.6.weight_1">
					<dim>128</dim>
					<dim>64</dim>
					<dim>3</dim>
					<dim>3</dim>
				</port>
			</output>
		</layer>
		<layer id="39" name="Conv_6/WithoutBiases" type="Convolution" version="opset1">
			<data strides="1, 1" dilations="1, 1" pads_begin="1, 1" pads_end="1, 1" auto_pad="explicit" />
			<input>
				<port id="0" precision="FP32">
					<dim>1</dim>
					<dim>64</dim>
					<dim>16</dim>
					<dim>80</dim>
				</port>
				<port id="1" precision="FP32">
					<dim>128</dim>
					<dim>64</dim>
					<dim>3</dim>
					<dim>3</dim>
				</port>
			</input>
			<output>
				<port id="2" precision="FP32">
					<dim>1</dim>
					<dim>128</dim>
					<dim>16</dim>
					<dim>80</dim>
				</port>
			</output>
		</layer>
		<layer id="40" name="Reshape_207" type="Const" version="opset1">
			<data element_type="f32" shape="1, 128, 1, 1" offset="95296" size="512" />
			<output>
				<port id="0" precision="FP32">
					<dim>1</dim>
					<dim>128</dim>
					<dim>1</dim>
					<dim>1</dim>
				</port>
			</output>
		</layer>
		<layer id="41" name="Conv_6" type="Add" version="opset1">
			<data auto_broadcast="numpy" />
			<input>
				<port id="0" precision="FP32">
					<dim>1</dim>
					<dim>128</dim>
					<dim>16</dim>
					<dim>80</dim>
				</port>
				<port id="1" precision="FP32">
					<dim>1</dim>
					<dim>128</dim>
					<dim>1</dim>
					<dim>1</dim>
				</port>
			</input>
			<output>
				<port id="2" precision="FP32" names="52">
					<dim>1</dim>
					<dim>128</dim>
					<dim>16</dim>
					<dim>80</dim>
				</port>
			</output>
		</layer>
		<layer id="42" name="Constant_2160" type="Const" version="opset1">
			<data element_type="f32" shape="1, 1, 1, 1" offset="2436" size="4" />
			<output>
				<port id="0" precision="FP32">
					<dim>1</dim>
					<dim>1</dim>
					<dim>1</dim>
					<dim>1</dim>
				</port>
			</output>
		</layer>
		<layer id="43" name="Constant_2161" type="Const" version="opset1">
			<data element_type="f32" shape="1, 1, 1, 1" offset="95808" size="4" />
			<output>
				<port id="0" precision="FP32">
					<dim>1</dim>
					<dim>1</dim>
					<dim>1</dim>
					<dim>1</dim>
				</port>
			</output>
		</layer>
		<layer id="44" name="Constant_2162" type="Const" version="opset1">
			<data element_type="f32" shape="1, 1, 1, 1" offset="2436" size="4" />
			<output>
				<port id="0" precision="FP32">
					<dim>1</dim>
					<dim>1</dim>
					<dim>1</dim>
					<dim>1</dim>
				</port>
			</output>
		</layer>
		<layer id="45" name="Constant_2163" type="Const" version="opset1">
			<data element_type="f32" shape="1, 1, 1, 1" offset="95808" size="4" />
			<output>
				<port id="0" precision="FP32">
					<dim>1</dim>
					<dim>1</dim>
					<dim>1</dim>
					<dim>1</dim>
				</port>
			</output>
		</layer>
		<layer id="46" name="DequantizeLinear_53_1" type="FakeQuantize" version="opset1">
			<data levels="256" auto_broadcast="numpy" />
			<input>
				<port id="0" precision="FP32">
					<dim>1</dim>
					<dim>128</dim>
					<dim>16</dim>
					<dim>80</dim>
				</port>
				<port id="1" precision="FP32">
					<dim>1</dim>
					<dim>1</dim>
					<dim>1</dim>
					<dim>1</dim>
				</port>
				<port id="2" precision="FP32">
					<dim>1</dim>
					<dim>1</dim>
					<dim>1</dim>
					<dim>1</dim>
				</port>
				<port id="3" precision="FP32">
					<dim>1</dim>
					<dim>1</dim>
					<dim>1</dim>
					<dim>1</dim>
				</port>
				<port id="4" precision="FP32">
					<dim>1</dim>
					<dim>1</dim>
					<dim>1</dim>
					<dim>1</dim>
				</port>
			</input>
			<output>
				<port id="5" precision="FP32" names="dq_output_53_1">
					<dim>1</dim>
					<dim>128</dim>
					<dim>16</dim>
					<dim>80</dim>
				</port>
			</output>
		</layer>
		<layer id="47" name="FeatureExtraction.ConvNet.8.weight" type="Const" version="opset1">
			<data element_type="i8" shape="128, 128, 3, 3" offset="95812" size="147456" />
			<output>
				<port id="0" precision="I8">
					<dim>128</dim>
					<dim>128</dim>
					<dim>3</dim>
					<dim>3</dim>
				</port>
			</output>
		</layer>
		<layer id="48" name="Convert_2872" type="Convert" version="opset1">
			<data destination_type="f32" />
			<input>
				<port id="0" precision="I8">
					<dim>128</dim>
					<dim>128</dim>
					<dim>3</dim>
					<dim>3</dim>
				</port>
			</input>
			<output>
				<port id="1" precision="FP32">
					<dim>128</dim>
					<dim>128</dim>
					<dim>3</dim>
					<dim>3</dim>
				</port>
			</output>
		</layer>
		<layer id="49" name="Constant_2770" type="Const" version="opset1">
			<data element_type="f32" shape="1, 1, 1, 1" offset="243268" size="4" />
			<output>
				<port id="0" precision="FP32">
					<dim>1</dim>
					<dim>1</dim>
					<dim>1</dim>
					<dim>1</dim>
				</port>
			</output>
		</layer>
		<layer id="50" name="DequantizeLinear_FeatureExtraction.ConvNet.8.weight_1" type="Multiply" version="opset1">
			<data auto_broadcast="numpy" />
			<input>
				<port id="0" precision="FP32">
					<dim>128</dim>
					<dim>128</dim>
					<dim>3</dim>
					<dim>3</dim>
				</port>
				<port id="1" precision="FP32">
					<dim>1</dim>
					<dim>1</dim>
					<dim>1</dim>
					<dim>1</dim>
				</port>
			</input>
			<output>
				<port id="2" precision="FP32" names="dq_output_FeatureExtraction.ConvNet.8.weight_1">
					<dim>128</dim>
					<dim>128</dim>
					<dim>3</dim>
					<dim>3</dim>
				</port>
			</output>
		</layer>
		<layer id="51" name="Conv_8/WithoutBiases" type="Convolution" version="opset1">
			<data strides="1, 1" dilations="1, 1" pads_begin="1, 1" pads_end="1, 1" auto_pad="explicit" />
			<input>
				<port id="0" precision="FP32">
					<dim>1</dim>
					<dim>128</dim>
					<dim>16</dim>
					<dim>80</dim>
				</port>
				<port id="1" precision="FP32">
					<dim>128</dim>
					<dim>128</dim>
					<dim>3</dim>
					<dim>3</dim>
				</port>
			</input>
			<output>
				<port id="2" precision="FP32">
					<dim>1</dim>
					<dim>128</dim>
					<dim>16</dim>
					<dim>80</dim>
				</port>
			</output>
		</layer>
		<layer id="52" name="Reshape_253" type="Const" version="opset1">
			<data element_type="f32" shape="1, 128, 1, 1" offset="243272" size="512" />
			<output>
				<port id="0" precision="FP32">
					<dim>1</dim>
					<dim>128</dim>
					<dim>1</dim>
					<dim>1</dim>
				</port>
			</output>
		</layer>
		<layer id="53" name="Conv_8" type="Add" version="opset1">
			<data auto_broadcast="numpy" />
			<input>
				<port id="0" precision="FP32">
					<dim>1</dim>
					<dim>128</dim>
					<dim>16</dim>
					<dim>80</dim>
				</port>
				<port id="1" precision="FP32">
					<dim>1</dim>
					<dim>128</dim>
					<dim>1</dim>
					<dim>1</dim>
				</port>
			</input>
			<output>
				<port id="2" precision="FP32" names="54">
					<dim>1</dim>
					<dim>128</dim>
					<dim>16</dim>
					<dim>80</dim>
				</port>
			</output>
		</layer>
		<layer id="54" name="Constant_2168" type="Const" version="opset1">
			<data element_type="f32" shape="1, 1, 1, 1" offset="2436" size="4" />
			<output>
				<port id="0" precision="FP32">
					<dim>1</dim>
					<dim>1</dim>
					<dim>1</dim>
					<dim>1</dim>
				</port>
			</output>
		</layer>
		<layer id="55" name="Constant_2169" type="Const" version="opset1">
			<data element_type="f32" shape="1, 1, 1, 1" offset="243784" size="4" />
			<output>
				<port id="0" precision="FP32">
					<dim>1</dim>
					<dim>1</dim>
					<dim>1</dim>
					<dim>1</dim>
				</port>
			</output>
		</layer>
		<layer id="56" name="Constant_2170" type="Const" version="opset1">
			<data element_type="f32" shape="1, 1, 1, 1" offset="2436" size="4" />
			<output>
				<port id="0" precision="FP32">
					<dim>1</dim>
					<dim>1</dim>
					<dim>1</dim>
					<dim>1</dim>
				</port>
			</output>
		</layer>
		<layer id="57" name="Constant_2171" type="Const" version="opset1">
			<data element_type="f32" shape="1, 1, 1, 1" offset="243784" size="4" />
			<output>
				<port id="0" precision="FP32">
					<dim>1</dim>
					<dim>1</dim>
					<dim>1</dim>
					<dim>1</dim>
				</port>
			</output>
		</layer>
		<layer id="58" name="DequantizeLinear_55_1" type="FakeQuantize" version="opset1">
			<data levels="256" auto_broadcast="numpy" />
			<input>
				<port id="0" precision="FP32">
					<dim>1</dim>
					<dim>128</dim>
					<dim>16</dim>
					<dim>80</dim>
				</port>
				<port id="1" precision="FP32">
					<dim>1</dim>
					<dim>1</dim>
					<dim>1</dim>
					<dim>1</dim>
				</port>
				<port id="2" precision="FP32">
					<dim>1</dim>
					<dim>1</dim>
					<dim>1</dim>
					<dim>1</dim>
				</port>
				<port id="3" precision="FP32">
					<dim>1</dim>
					<dim>1</dim>
					<dim>1</dim>
					<dim>1</dim>
				</port>
				<port id="4" precision="FP32">
					<dim>1</dim>
					<dim>1</dim>
					<dim>1</dim>
					<dim>1</dim>
				</port>
			</input>
			<output>
				<port id="5" precision="FP32" names="dq_output_55_1">
					<dim>1</dim>
					<dim>128</dim>
					<dim>16</dim>
					<dim>80</dim>
				</port>
			</output>
		</layer>
		<layer id="59" name="MaxPool_10" type="MaxPool" version="opset8">
			<data strides="2, 1" dilations="1, 1" pads_begin="0, 0" pads_end="0, 0" kernel="2, 1" rounding_type="floor" auto_pad="explicit" index_element_type="i64" axis="0" />
			<input>
				<port id="0" precision="FP32">
					<dim>1</dim>
					<dim>128</dim>
					<dim>16</dim>
					<dim>80</dim>
				</port>
			</input>
			<output>
				<port id="1" precision="FP32" names="56">
					<dim>1</dim>
					<dim>128</dim>
					<dim>8</dim>
					<dim>80</dim>
				</port>
				<port id="2" precision="I64">
					<dim>1</dim>
					<dim>128</dim>
					<dim>8</dim>
					<dim>80</dim>
				</port>
			</output>
		</layer>
		<layer id="60" name="361" type="Const" version="opset1">
			<data element_type="i8" shape="256, 128, 3, 3" offset="243788" size="294912" />
			<output>
				<port id="0" precision="I8">
					<dim>256</dim>
					<dim>128</dim>
					<dim>3</dim>
					<dim>3</dim>
				</port>
			</output>
		</layer>
		<layer id="61" name="Convert_3026" type="Convert" version="opset1">
			<data destination_type="f32" />
			<input>
				<port id="0" precision="I8">
					<dim>256</dim>
					<dim>128</dim>
					<dim>3</dim>
					<dim>3</dim>
				</port>
			</input>
			<output>
				<port id="1" precision="FP32">
					<dim>256</dim>
					<dim>128</dim>
					<dim>3</dim>
					<dim>3</dim>
				</port>
			</output>
		</layer>
		<layer id="62" name="Constant_2924" type="Const" version="opset1">
			<data element_type="f32" shape="1, 1, 1, 1" offset="538700" size="4" />
			<output>
				<port id="0" precision="FP32">
					<dim>1</dim>
					<dim>1</dim>
					<dim>1</dim>
					<dim>1</dim>
				</port>
			</output>
		</layer>
		<layer id="63" name="DequantizeLinear_361_1" type="Multiply" version="opset1">
			<data auto_broadcast="numpy" />
			<input>
				<port id="0" precision="FP32">
					<dim>256</dim>
					<dim>128</dim>
					<dim>3</dim>
					<dim>3</dim>
				</port>
				<port id="1" precision="FP32">
					<dim>1</dim>
					<dim>1</dim>
					<dim>1</dim>
					<dim>1</dim>
				</port>
			</input>
			<output>
				<port id="2" precision="FP32" names="dq_output_361_1">
					<dim>256</dim>
					<dim>128</dim>
					<dim>3</dim>
					<dim>3</dim>
				</port>
			</output>
		</layer>
		<layer id="64" name="Conv_11/WithoutBiases" type="Convolution" version="opset1">
			<data strides="1, 1" dilations="1, 1" pads_begin="1, 1" pads_end="1, 1" auto_pad="explicit" />
			<input>
				<port id="0" precision="FP32">
					<dim>1</dim>
					<dim>128</dim>
					<dim>8</dim>
					<dim>80</dim>
				</port>
				<port id="1" precision="FP32">
					<dim>256</dim>
					<dim>128</dim>
					<dim>3</dim>
					<dim>3</dim>
				</port>
			</input>
			<output>
				<port id="2" precision="FP32">
					<dim>1</dim>
					<dim>256</dim>
					<dim>8</dim>
					<dim>80</dim>
				</port>
			</output>
		</layer>
		<layer id="65" name="Reshape_300" type="Const" version="opset1">
			<data element_type="f32" shape="1, 256, 1, 1" offset="538704" size="1024" />
			<output>
				<port id="0" precision="FP32">
					<dim>1</dim>
					<dim>256</dim>
					<dim>1</dim>
					<dim>1</dim>
				</port>
			</output>
		</layer>
		<layer id="66" name="Conv_11" type="Add" version="opset1">
			<data auto_broadcast="numpy" />
			<input>
				<port id="0" precision="FP32">
					<dim>1</dim>
					<dim>256</dim>
					<dim>8</dim>
					<dim>80</dim>
				</port>
				<port id="1" precision="FP32">
					<dim>1</dim>
					<dim>256</dim>
					<dim>1</dim>
					<dim>1</dim>
				</port>
			</input>
			<output>
				<port id="2" precision="FP32" names="360">
					<dim>1</dim>
					<dim>256</dim>
					<dim>8</dim>
					<dim>80</dim>
				</port>
			</output>
		</layer>
		<layer id="67" name="Constant_2176" type="Const" version="opset1">
			<data element_type="f32" shape="1, 1, 1, 1" offset="2436" size="4" />
			<output>
				<port id="0" precision="FP32">
					<dim>1</dim>
					<dim>1</dim>
					<dim>1</dim>
					<dim>1</dim>
				</port>
			</output>
		</layer>
		<layer id="68" name="Constant_2177" type="Const" version="opset1">
			<data element_type="f32" shape="1, 1, 1, 1" offset="539728" size="4" />
			<output>
				<port id="0" precision="FP32">
					<dim>1</dim>
					<dim>1</dim>
					<dim>1</dim>
					<dim>1</dim>
				</port>
			</output>
		</layer>
		<layer id="69" name="Constant_2178" type="Const" version="opset1">
			<data element_type="f32" shape="1, 1, 1, 1" offset="2436" size="4" />
			<output>
				<port id="0" precision="FP32">
					<dim>1</dim>
					<dim>1</dim>
					<dim>1</dim>
					<dim>1</dim>
				</port>
			</output>
		</layer>
		<layer id="70" name="Constant_2179" type="Const" version="opset1">
			<data element_type="f32" shape="1, 1, 1, 1" offset="539728" size="4" />
			<output>
				<port id="0" precision="FP32">
					<dim>1</dim>
					<dim>1</dim>
					<dim>1</dim>
					<dim>1</dim>
				</port>
			</output>
		</layer>
		<layer id="71" name="DequantizeLinear_59_1" type="FakeQuantize" version="opset1">
			<data levels="256" auto_broadcast="numpy" />
			<input>
				<port id="0" precision="FP32">
					<dim>1</dim>
					<dim>256</dim>
					<dim>8</dim>
					<dim>80</dim>
				</port>
				<port id="1" precision="FP32">
					<dim>1</dim>
					<dim>1</dim>
					<dim>1</dim>
					<dim>1</dim>
				</port>
				<port id="2" precision="FP32">
					<dim>1</dim>
					<dim>1</dim>
					<dim>1</dim>
					<dim>1</dim>
				</port>
				<port id="3" precision="FP32">
					<dim>1</dim>
					<dim>1</dim>
					<dim>1</dim>
					<dim>1</dim>
				</port>
				<port id="4" precision="FP32">
					<dim>1</dim>
					<dim>1</dim>
					<dim>1</dim>
					<dim>1</dim>
				</port>
			</input>
			<output>
				<port id="5" precision="FP32" names="dq_output_59_1">
					<dim>1</dim>
					<dim>256</dim>
					<dim>8</dim>
					<dim>80</dim>
				</port>
			</output>
		</layer>
		<layer id="72" name="364" type="Const" version="opset1">
			<data element_type="i8" shape="256, 256, 3, 3" offset="539732" size="589824" />
			<output>
				<port id="0" precision="I8">
					<dim>256</dim>
					<dim>256</dim>
					<dim>3</dim>
					<dim>3</dim>
				</port>
			</output>
		</layer>
		<layer id="73" name="Convert_3180" type="Convert" version="opset1">
			<data destination_type="f32" />
			<input>
				<port id="0" precision="I8">
					<dim>256</dim>
					<dim>256</dim>
					<dim>3</dim>
					<dim>3</dim>
				</port>
			</input>
			<output>
				<port id="1" precision="FP32">
					<dim>256</dim>
					<dim>256</dim>
					<dim>3</dim>
					<dim>3</dim>
				</port>
			</output>
		</layer>
		<layer id="74" name="Constant_3078" type="Const" version="opset1">
			<data element_type="f32" shape="1, 1, 1, 1" offset="1129556" size="4" />
			<output>
				<port id="0" precision="FP32">
					<dim>1</dim>
					<dim>1</dim>
					<dim>1</dim>
					<dim>1</dim>
				</port>
			</output>
		</layer>
		<layer id="75" name="DequantizeLinear_364_1" type="Multiply" version="opset1">
			<data auto_broadcast="numpy" />
			<input>
				<port id="0" precision="FP32">
					<dim>256</dim>
					<dim>256</dim>
					<dim>3</dim>
					<dim>3</dim>
				</port>
				<port id="1" precision="FP32">
					<dim>1</dim>
					<dim>1</dim>
					<dim>1</dim>
					<dim>1</dim>
				</port>
			</input>
			<output>
				<port id="2" precision="FP32" names="dq_output_364_1">
					<dim>256</dim>
					<dim>256</dim>
					<dim>3</dim>
					<dim>3</dim>
				</port>
			</output>
		</layer>
		<layer id="76" name="Conv_13/WithoutBiases" type="Convolution" version="opset1">
			<data strides="1, 1" dilations="1, 1" pads_begin="1, 1" pads_end="1, 1" auto_pad="explicit" />
			<input>
				<port id="0" precision="FP32">
					<dim>1</dim>
					<dim>256</dim>
					<dim>8</dim>
					<dim>80</dim>
				</port>
				<port id="1" precision="FP32">
					<dim>256</dim>
					<dim>256</dim>
					<dim>3</dim>
					<dim>3</dim>
				</port>
			</input>
			<output>
				<port id="2" precision="FP32">
					<dim>1</dim>
					<dim>256</dim>
					<dim>8</dim>
					<dim>80</dim>
				</port>
			</output>
		</layer>
		<layer id="77" name="Reshape_346" type="Const" version="opset1">
			<data element_type="f32" shape="1, 256, 1, 1" offset="1129560" size="1024" />
			<output>
				<port id="0" precision="FP32">
					<dim>1</dim>
					<dim>256</dim>
					<dim>1</dim>
					<dim>1</dim>
				</port>
			</output>
		</layer>
		<layer id="78" name="Conv_13" type="Add" version="opset1">
			<data auto_broadcast="numpy" />
			<input>
				<port id="0" precision="FP32">
					<dim>1</dim>
					<dim>256</dim>
					<dim>8</dim>
					<dim>80</dim>
				</port>
				<port id="1" precision="FP32">
					<dim>1</dim>
					<dim>256</dim>
					<dim>1</dim>
					<dim>1</dim>
				</port>
			</input>
			<output>
				<port id="2" precision="FP32" names="363">
					<dim>1</dim>
					<dim>256</dim>
					<dim>8</dim>
					<dim>80</dim>
				</port>
			</output>
		</layer>
		<layer id="79" name="Constant_2184" type="Const" version="opset1">
			<data element_type="f32" shape="1, 1, 1, 1" offset="2436" size="4" />
			<output>
				<port id="0" precision="FP32">
					<dim>1</dim>
					<dim>1</dim>
					<dim>1</dim>
					<dim>1</dim>
				</port>
			</output>
		</layer>
		<layer id="80" name="Constant_2185" type="Const" version="opset1">
			<data element_type="f32" shape="1, 1, 1, 1" offset="1130584" size="4" />
			<output>
				<port id="0" precision="FP32">
					<dim>1</dim>
					<dim>1</dim>
					<dim>1</dim>
					<dim>1</dim>
				</port>
			</output>
		</layer>
		<layer id="81" name="Constant_2186" type="Const" version="opset1">
			<data element_type="f32" shape="1, 1, 1, 1" offset="2436" size="4" />
			<output>
				<port id="0" precision="FP32">
					<dim>1</dim>
					<dim>1</dim>
					<dim>1</dim>
					<dim>1</dim>
				</port>
			</output>
		</layer>
		<layer id="82" name="Constant_2187" type="Const" version="opset1">
			<data element_type="f32" shape="1, 1, 1, 1" offset="1130584" size="4" />
			<output>
				<port id="0" precision="FP32">
					<dim>1</dim>
					<dim>1</dim>
					<dim>1</dim>
					<dim>1</dim>
				</port>
			</output>
		</layer>
		<layer id="83" name="DequantizeLinear_62_1" type="FakeQuantize" version="opset1">
			<data levels="256" auto_broadcast="numpy" />
			<input>
				<port id="0" precision="FP32">
					<dim>1</dim>
					<dim>256</dim>
					<dim>8</dim>
					<dim>80</dim>
				</port>
				<port id="1" precision="FP32">
					<dim>1</dim>
					<dim>1</dim>
					<dim>1</dim>
					<dim>1</dim>
				</port>
				<port id="2" precision="FP32">
					<dim>1</dim>
					<dim>1</dim>
					<dim>1</dim>
					<dim>1</dim>
				</port>
				<port id="3" precision="FP32">
					<dim>1</dim>
					<dim>1</dim>
					<dim>1</dim>
					<dim>1</dim>
				</port>
				<port id="4" precision="FP32">
					<dim>1</dim>
					<dim>1</dim>
					<dim>1</dim>
					<dim>1</dim>
				</port>
			</input>
			<output>
				<port id="5" precision="FP32" names="dq_output_62_1">
					<dim>1</dim>
					<dim>256</dim>
					<dim>8</dim>
					<dim>80</dim>
				</port>
			</output>
		</layer>
		<layer id="84" name="MaxPool_15" type="MaxPool" version="opset8">
			<data strides="2, 1" dilations="1, 1" pads_begin="0, 0" pads_end="0, 0" kernel="2, 1" rounding_type="floor" auto_pad="explicit" index_element_type="i64" axis="0" />
			<input>
				<port id="0" precision="FP32">
					<dim>1</dim>
					<dim>256</dim>
					<dim>8</dim>
					<dim>80</dim>
				</port>
			</input>
			<output>
				<port id="1" precision="FP32" names="63">
					<dim>1</dim>
					<dim>256</dim>
					<dim>4</dim>
					<dim>80</dim>
				</port>
				<port id="2" precision="I64">
					<dim>1</dim>
					<dim>256</dim>
					<dim>4</dim>
					<dim>80</dim>
				</port>
			</output>
		</layer>
		<layer id="85" name="FeatureExtraction.ConvNet.18.weight" type="Const" version="opset1">
			<data element_type="i8" shape="256, 256, 2, 2" offset="1130588" size="262144" />
			<output>
				<port id="0" precision="I8">
					<dim>256</dim>
					<dim>256</dim>
					<dim>2</dim>
					<dim>2</dim>
				</port>
			</output>
		</layer>
		<layer id="86" name="Convert_3334" type="Convert" version="opset1">
			<data destination_type="f32" />
			<input>
				<port id="0" precision="I8">
					<dim>256</dim>
					<dim>256</dim>
					<dim>2</dim>
					<dim>2</dim>
				</port>
			</input>
			<output>
				<port id="1" precision="FP32">
					<dim>256</dim>
					<dim>256</dim>
					<dim>2</dim>
					<dim>2</dim>
				</port>
			</output>
		</layer>
		<layer id="87" name="Constant_3232" type="Const" version="opset1">
			<data element_type="f32" shape="1, 1, 1, 1" offset="1392732" size="4" />
			<output>
				<port id="0" precision="FP32">
					<dim>1</dim>
					<dim>1</dim>
					<dim>1</dim>
					<dim>1</dim>
				</port>
			</output>
		</layer>
		<layer id="88" name="DequantizeLinear_FeatureExtraction.ConvNet.18.weight_1" type="Multiply" version="opset1">
			<data auto_broadcast="numpy" />
			<input>
				<port id="0" precision="FP32">
					<dim>256</dim>
					<dim>256</dim>
					<dim>2</dim>
					<dim>2</dim>
				</port>
				<port id="1" precision="FP32">
					<dim>1</dim>
					<dim>1</dim>
					<dim>1</dim>
					<dim>1</dim>
				</port>
			</input>
			<output>
				<port id="2" precision="FP32" names="dq_output_FeatureExtraction.ConvNet.18.weight_1">
					<dim>256</dim>
					<dim>256</dim>
					<dim>2</dim>
					<dim>2</dim>
				</port>
			</output>
		</layer>
		<layer id="89" name="Conv_16/WithoutBiases" type="Convolution" version="opset1">
			<data strides="1, 1" dilations="1, 1" pads_begin="0, 0" pads_end="0, 0" auto_pad="explicit" />
			<input>
				<port id="0" precision="FP32">
					<dim>1</dim>
					<dim>256</dim>
					<dim>4</dim>
					<dim>80</dim>
				</port>
				<port id="1" precision="FP32">
					<dim>256</dim>
					<dim>256</dim>
					<dim>2</dim>
					<dim>2</dim>
				</port>
			</input>
			<output>
				<port id="2" precision="FP32">
					<dim>1</dim>
					<dim>256</dim>
					<dim>3</dim>
					<dim>79</dim>
				</port>
			</output>
		</layer>
		<layer id="90" name="Reshape_393" type="Const" version="opset1">
			<data element_type="f32" shape="1, 256, 1, 1" offset="1392736" size="1024" />
			<output>
				<port id="0" precision="FP32">
					<dim>1</dim>
					<dim>256</dim>
					<dim>1</dim>
					<dim>1</dim>
				</port>
			</output>
		</layer>
		<layer id="91" name="Conv_16" type="Add" version="opset1">
			<data auto_broadcast="numpy" />
			<input>
				<port id="0" precision="FP32">
					<dim>1</dim>
					<dim>256</dim>
					<dim>3</dim>
					<dim>79</dim>
				</port>
				<port id="1" precision="FP32">
					<dim>1</dim>
					<dim>256</dim>
					<dim>1</dim>
					<dim>1</dim>
				</port>
			</input>
			<output>
				<port id="2" precision="FP32" names="64">
					<dim>1</dim>
					<dim>256</dim>
					<dim>3</dim>
					<dim>79</dim>
				</port>
			</output>
		</layer>
		<layer id="92" name="Constant_2192" type="Const" version="opset1">
			<data element_type="f32" shape="1, 1, 1, 1" offset="2436" size="4" />
			<output>
				<port id="0" precision="FP32">
					<dim>1</dim>
					<dim>1</dim>
					<dim>1</dim>
					<dim>1</dim>
				</port>
			</output>
		</layer>
		<layer id="93" name="Constant_2193" type="Const" version="opset1">
			<data element_type="f32" shape="1, 1, 1, 1" offset="1393760" size="4" />
			<output>
				<port id="0" precision="FP32">
					<dim>1</dim>
					<dim>1</dim>
					<dim>1</dim>
					<dim>1</dim>
				</port>
			</output>
		</layer>
		<layer id="94" name="Constant_2194" type="Const" version="opset1">
			<data element_type="f32" shape="1, 1, 1, 1" offset="2436" size="4" />
			<output>
				<port id="0" precision="FP32">
					<dim>1</dim>
					<dim>1</dim>
					<dim>1</dim>
					<dim>1</dim>
				</port>
			</output>
		</layer>
		<layer id="95" name="Constant_2195" type="Const" version="opset1">
			<data element_type="f32" shape="1, 1, 1, 1" offset="1393760" size="4" />
			<output>
				<port id="0" precision="FP32">
					<dim>1</dim>
					<dim>1</dim>
					<dim>1</dim>
					<dim>1</dim>
				</port>
			</output>
		</layer>
		<layer id="96" name="DequantizeLinear_65_1" type="FakeQuantize" version="opset1">
			<data levels="256" auto_broadcast="numpy" />
			<input>
				<port id="0" precision="FP32">
					<dim>1</dim>
					<dim>256</dim>
					<dim>3</dim>
					<dim>79</dim>
				</port>
				<port id="1" precision="FP32">
					<dim>1</dim>
					<dim>1</dim>
					<dim>1</dim>
					<dim>1</dim>
				</port>
				<port id="2" precision="FP32">
					<dim>1</dim>
					<dim>1</dim>
					<dim>1</dim>
					<dim>1</dim>
				</port>
				<port id="3" precision="FP32">
					<dim>1</dim>
					<dim>1</dim>
					<dim>1</dim>
					<dim>1</dim>
				</port>
				<port id="4" precision="FP32">
					<dim>1</dim>
					<dim>1</dim>
					<dim>1</dim>
					<dim>1</dim>
				</port>
			</input>
			<output>
				<port id="5" precision="FP32" names="dq_output_65_1">
					<dim>1</dim>
					<dim>256</dim>
					<dim>3</dim>
					<dim>79</dim>
				</port>
			</output>
		</layer>
		<layer id="97" name="Constant_413" type="Const" version="opset1">
			<data element_type="i64" shape="4" offset="1393764" size="32" />
			<output>
				<port id="0" precision="I64">
					<dim>4</dim>
				</port>
			</output>
		</layer>
		<layer id="98" name="Transpose_18" type="Transpose" version="opset1">
			<input>
				<port id="0" precision="FP32">
					<dim>1</dim>
					<dim>256</dim>
					<dim>3</dim>
					<dim>79</dim>
				</port>
				<port id="1" precision="I64">
					<dim>4</dim>
				</port>
			</input>
			<output>
				<port id="2" precision="FP32" names="66">
					<dim>1</dim>
					<dim>79</dim>
					<dim>256</dim>
					<dim>3</dim>
				</port>
			</output>
		</layer>
		<layer id="99" name="AveragePool_19" type="AvgPool" version="opset1">
			<data kernel="1, 3" strides="1, 3" pads_begin="0, 0" pads_end="0, 0" exclude-pad="true" auto_pad="explicit" rounding_type="floor" />
			<input>
				<port id="0" precision="FP32">
					<dim>1</dim>
					<dim>79</dim>
					<dim>256</dim>
					<dim>3</dim>
				</port>
			</input>
			<output>
				<port id="1" precision="FP32" names="67">
					<dim>1</dim>
					<dim>79</dim>
					<dim>256</dim>
					<dim>1</dim>
				</port>
			</output>
		</layer>
		<layer id="100" name="Constant_416" type="Const" version="opset1">
			<data element_type="i64" shape="1" offset="1393796" size="8" />
			<output>
				<port id="0" precision="I64">
					<dim>1</dim>
				</port>
			</output>
		</layer>
		<layer id="101" name="Squeeze_20" type="Squeeze" version="opset1">
			<input>
				<port id="0" precision="FP32">
					<dim>1</dim>
					<dim>79</dim>
					<dim>256</dim>
					<dim>1</dim>
				</port>
				<port id="1" precision="I64">
					<dim>1</dim>
				</port>
			</input>
			<output>
				<port id="2" precision="FP32" names="68">
					<dim>1</dim>
					<dim>79</dim>
					<dim>256</dim>
				</port>
			</output>
		</layer>
		<layer id="102" name="Constant_426" type="Const" version="opset1">
			<data element_type="f32" shape="" offset="2436" size="4" />
			<output>
				<port id="0" precision="FP32" />
			</output>
		</layer>
		<layer id="103" name="366" type="Const" version="opset1">
			<data element_type="i64" shape="1" offset="1393804" size="8" />
			<output>
				<port id="0" precision="I64" names="366">
					<dim>1</dim>
				</port>
			</output>
		</layer>
		<layer id="104" name="Shape_21" type="ShapeOf" version="opset3">
			<data output_type="i64" />
			<input>
				<port id="0" precision="FP32">
					<dim>1</dim>
					<dim>79</dim>
					<dim>256</dim>
				</port>
			</input>
			<output>
				<port id="1" precision="I64" names="69">
					<dim>3</dim>
				</port>
			</output>
		</layer>
		<layer id="105" name="Constant_2038" type="Const" version="opset1">
			<data element_type="i64" shape="1" offset="1393812" size="8" />
			<output>
				<port id="0" precision="I64">
					<dim>1</dim>
				</port>
			</output>
		</layer>
		<layer id="106" name="Constant_420" type="Const" version="opset1">
			<data element_type="i64" shape="" offset="1393812" size="8" />
			<output>
				<port id="0" precision="I64" />
			</output>
		</layer>
		<layer id="107" name="Gather_23" type="Gather" version="opset8">
			<data batch_dims="0" />
			<input>
				<port id="0" precision="I64">
					<dim>3</dim>
				</port>
				<port id="1" precision="I64">
					<dim>1</dim>
				</port>
				<port id="2" precision="I64" />
			</input>
			<output>
				<port id="3" precision="I64" names="75">
					<dim>1</dim>
				</port>
			</output>
		</layer>
		<layer id="108" name="367" type="Const" version="opset1">
			<data element_type="i64" shape="1" offset="1393820" size="8" />
			<output>
				<port id="0" precision="I64" names="367">
					<dim>1</dim>
				</port>
			</output>
		</layer>
		<layer id="109" name="Concat_25" type="Concat" version="opset1">
			<data axis="0" />
			<input>
				<port id="0" precision="I64">
					<dim>1</dim>
				</port>
				<port id="1" precision="I64">
					<dim>1</dim>
				</port>
				<port id="2" precision="I64">
					<dim>1</dim>
				</port>
			</input>
			<output>
				<port id="3" precision="I64" names="77">
					<dim>3</dim>
				</port>
			</output>
		</layer>
		<layer id="110" name="ConstantOfShape_26" type="Broadcast" version="opset3">
			<data mode="numpy" />
			<input>
				<port id="0" precision="FP32" />
				<port id="1" precision="I64">
					<dim>3</dim>
				</port>
			</input>
			<output>
				<port id="2" precision="FP32" names="78">
					<dim>2</dim>
					<dim>1</dim>
					<dim>256</dim>
				</port>
			</output>
		</layer>
		<layer id="111" name="Constant_469" type="Const" version="opset1">
			<data element_type="i64" shape="3" offset="1393828" size="24" />
			<output>
				<port id="0" precision="I64">
					<dim>3</dim>
				</port>
			</output>
		</layer>
		<layer id="112" name="Transpose_470" type="Transpose" version="opset1">
			<input>
				<port id="0" precision="FP32">
					<dim>2</dim>
					<dim>1</dim>
					<dim>256</dim>
				</port>
				<port id="1" precision="I64">
					<dim>3</dim>
				</port>
			</input>
			<output>
				<port id="2" precision="FP32">
					<dim>1</dim>
					<dim>2</dim>
					<dim>256</dim>
				</port>
			</output>
		</layer>
		<layer id="113" name="Constant_434" type="Const" version="opset1">
			<data element_type="f32" shape="" offset="2436" size="4" />
			<output>
				<port id="0" precision="FP32" />
			</output>
		</layer>
		<layer id="114" name="368" type="Const" version="opset1">
			<data element_type="i64" shape="1" offset="1393804" size="8" />
			<output>
				<port id="0" precision="I64" names="368">
					<dim>1</dim>
				</port>
			</output>
		</layer>
		<layer id="115" name="Constant_2044" type="Const" version="opset1">
			<data element_type="i64" shape="1" offset="1393812" size="8" />
			<output>
				<port id="0" precision="I64">
					<dim>1</dim>
				</port>
			</output>
		</layer>
		<layer id="116" name="Gather_230" type="Gather" version="opset8">
			<data batch_dims="0" />
			<input>
				<port id="0" precision="I64">
					<dim>3</dim>
				</port>
				<port id="1" precision="I64">
					<dim>1</dim>
				</port>
				<port id="2" precision="I64" />
			</input>
			<output>
				<port id="3" precision="I64" names="82">
					<dim>1</dim>
				</port>
			</output>
		</layer>
		<layer id="117" name="369" type="Const" version="opset1">
			<data element_type="i64" shape="1" offset="1393820" size="8" />
			<output>
				<port id="0" precision="I64" names="369">
					<dim>1</dim>
				</port>
			</output>
		</layer>
		<layer id="118" name="Concat_28" type="Concat" version="opset1">
			<data axis="0" />
			<input>
				<port id="0" precision="I64">
					<dim>1</dim>
				</port>
				<port id="1" precision="I64">
					<dim>1</dim>
				</port>
				<port id="2" precision="I64">
					<dim>1</dim>
				</port>
			</input>
			<output>
				<port id="3" precision="I64" names="84">
					<dim>3</dim>
				</port>
			</output>
		</layer>
		<layer id="119" name="ConstantOfShape_29" type="Broadcast" version="opset3">
			<data mode="numpy" />
			<input>
				<port id="0" precision="FP32" />
				<port id="1" precision="I64">
					<dim>3</dim>
				</port>
			</input>
			<output>
				<port id="2" precision="FP32" names="85">
					<dim>2</dim>
					<dim>1</dim>
					<dim>256</dim>
				</port>
			</output>
		</layer>
		<layer id="120" name="Constant_471" type="Const" version="opset1">
			<data element_type="i64" shape="3" offset="1393828" size="24" />
			<output>
				<port id="0" precision="I64">
					<dim>3</dim>
				</port>
			</output>
		</layer>
		<layer id="121" name="Transpose_472" type="Transpose" version="opset1">
			<input>
				<port id="0" precision="FP32">
					<dim>2</dim>
					<dim>1</dim>
					<dim>256</dim>
				</port>
				<port id="1" precision="I64">
					<dim>3</dim>
				</port>
			</input>
			<output>
				<port id="2" precision="FP32">
					<dim>1</dim>
					<dim>2</dim>
					<dim>256</dim>
				</port>
			</output>
		</layer>
		<layer id="122" name="ShapeOf_449" type="ShapeOf" version="opset3">
			<data output_type="i64" />
			<input>
				<port id="0" precision="FP32">
					<dim>1</dim>
					<dim>79</dim>
					<dim>256</dim>
				</port>
			</input>
			<output>
				<port id="1" precision="I64">
					<dim>3</dim>
				</port>
			</output>
		</layer>
		<layer id="123" name="Constant_453" type="Const" version="opset1">
			<data element_type="i32" shape="1" offset="1393852" size="4" />
			<output>
				<port id="0" precision="I32">
					<dim>1</dim>
				</port>
			</output>
		</layer>
		<layer id="124" name="Constant_450" type="Const" version="opset1">
			<data element_type="i32" shape="1" offset="2436" size="4" />
			<output>
				<port id="0" precision="I32">
					<dim>1</dim>
				</port>
			</output>
		</layer>
		<layer id="125" name="Gather_454" type="Gather" version="opset8">
			<data batch_dims="0" />
			<input>
				<port id="0" precision="I64">
					<dim>3</dim>
				</port>
				<port id="1" precision="I32">
					<dim>1</dim>
				</port>
				<port id="2" precision="I32">
					<dim>1</dim>
				</port>
			</input>
			<output>
				<port id="3" precision="I64">
					<dim>1</dim>
				</port>
			</output>
		</layer>
		<layer id="126" name="Constant_451" type="Const" version="opset1">
			<data element_type="i32" shape="1" offset="2436" size="4" />
			<output>
				<port id="0" precision="I32">
					<dim>1</dim>
				</port>
			</output>
		</layer>
		<layer id="127" name="Gather_452" type="Gather" version="opset8">
			<data batch_dims="0" />
			<input>
				<port id="0" precision="I64">
					<dim>3</dim>
				</port>
				<port id="1" precision="I32">
					<dim>1</dim>
				</port>
				<port id="2" precision="I32">
					<dim>1</dim>
				</port>
			</input>
			<output>
				<port id="3" precision="I64">
					<dim>1</dim>
				</port>
			</output>
		</layer>
		<layer id="128" name="Broadcast_466" type="Broadcast" version="opset3">
			<data mode="numpy" />
			<input>
				<port id="0" precision="I64">
					<dim>1</dim>
				</port>
				<port id="1" precision="I64">
					<dim>1</dim>
				</port>
			</input>
			<output>
				<port id="2" precision="I64">
					<dim>1</dim>
				</port>
			</output>
		</layer>
		<layer id="129" name="Concat_445" type="Const" version="opset1">
			<data element_type="f32" shape="2, 1024, 256" offset="1393856" size="2097152" />
			<output>
				<port id="0" precision="FP32">
					<dim>2</dim>
					<dim>1024</dim>
					<dim>256</dim>
				</port>
			</output>
		</layer>
		<layer id="130" name="Concat_448" type="Const" version="opset1">
			<data element_type="f32" shape="2, 1024, 256" offset="3491008" size="2097152" />
			<output>
				<port id="0" precision="FP32">
					<dim>2</dim>
					<dim>1024</dim>
					<dim>256</dim>
				</port>
			</output>
		</layer>
		<layer id="131" name="Concat_465" type="Const" version="opset1">
			<data element_type="f32" shape="2, 1024" offset="5588160" size="8192" />
			<output>
				<port id="0" precision="FP32">
					<dim>2</dim>
					<dim>1024</dim>
				</port>
			</output>
		</layer>
		<layer id="132" name="LSTMSequence_480" type="LSTMSequence" version="opset5">
			<data direction="bidirectional" hidden_size="256" activations="sigmoid, tanh, tanh" activations_alpha="" activations_beta="" clip="0" />
			<input>
				<port id="0" precision="FP32">
					<dim>1</dim>
					<dim>79</dim>
					<dim>256</dim>
				</port>
				<port id="1" precision="FP32">
					<dim>1</dim>
					<dim>2</dim>
					<dim>256</dim>
				</port>
				<port id="2" precision="FP32">
					<dim>1</dim>
					<dim>2</dim>
					<dim>256</dim>
				</port>
				<port id="3" precision="I64">
					<dim>1</dim>
				</port>
				<port id="4" precision="FP32">
					<dim>2</dim>
					<dim>1024</dim>
					<dim>256</dim>
				</port>
				<port id="5" precision="FP32">
					<dim>2</dim>
					<dim>1024</dim>
					<dim>256</dim>
				</port>
				<port id="6" precision="FP32">
					<dim>2</dim>
					<dim>1024</dim>
				</port>
			</input>
			<output>
				<port id="7" precision="FP32">
					<dim>1</dim>
					<dim>2</dim>
					<dim>79</dim>
					<dim>256</dim>
				</port>
				<port id="8" precision="FP32">
					<dim>1</dim>
					<dim>2</dim>
					<dim>256</dim>
				</port>
				<port id="9" precision="FP32">
					<dim>1</dim>
					<dim>2</dim>
					<dim>256</dim>
				</port>
			</output>
		</layer>
		<layer id="133" name="Constant_481" type="Const" version="opset1">
			<data element_type="i64" shape="4" offset="5596352" size="32" />
			<output>
				<port id="0" precision="I64">
					<dim>4</dim>
				</port>
			</output>
		</layer>
		<layer id="134" name="LSTM_31_203" type="Transpose" version="opset1">
			<input>
				<port id="0" precision="FP32">
					<dim>1</dim>
					<dim>2</dim>
					<dim>79</dim>
					<dim>256</dim>
				</port>
				<port id="1" precision="I64">
					<dim>4</dim>
				</port>
			</input>
			<output>
				<port id="2" precision="FP32" names="203">
					<dim>79</dim>
					<dim>2</dim>
					<dim>1</dim>
					<dim>256</dim>
				</port>
			</output>
		</layer>
		<layer id="135" name="Constant_2196" type="Const" version="opset1">
			<data element_type="f32" shape="1, 1, 1, 1" offset="5596384" size="4" />
			<output>
				<port id="0" precision="FP32">
					<dim>1</dim>
					<dim>1</dim>
					<dim>1</dim>
					<dim>1</dim>
				</port>
			</output>
		</layer>
		<layer id="136" name="Constant_2197" type="Const" version="opset1">
			<data element_type="f32" shape="1, 1, 1, 1" offset="5596388" size="4" />
			<output>
				<port id="0" precision="FP32">
					<dim>1</dim>
					<dim>1</dim>
					<dim>1</dim>
					<dim>1</dim>
				</port>
			</output>
		</layer>
		<layer id="137" name="Constant_2198" type="Const" version="opset1">
			<data element_type="f32" shape="1, 1, 1, 1" offset="5596384" size="4" />
			<output>
				<port id="0" precision="FP32">
					<dim>1</dim>
					<dim>1</dim>
					<dim>1</dim>
					<dim>1</dim>
				</port>
			</output>
		</layer>
		<layer id="138" name="Constant_2199" type="Const" version="opset1">
			<data element_type="f32" shape="1, 1, 1, 1" offset="5596388" size="4" />
			<output>
				<port id="0" precision="FP32">
					<dim>1</dim>
					<dim>1</dim>
					<dim>1</dim>
					<dim>1</dim>
				</port>
			</output>
		</layer>
		<layer id="139" name="DequantizeLinear_203_1" type="FakeQuantize" version="opset1">
			<data levels="256" auto_broadcast="numpy" />
			<input>
				<port id="0" precision="FP32">
					<dim>79</dim>
					<dim>2</dim>
					<dim>1</dim>
					<dim>256</dim>
				</port>
				<port id="1" precision="FP32">
					<dim>1</dim>
					<dim>1</dim>
					<dim>1</dim>
					<dim>1</dim>
				</port>
				<port id="2" precision="FP32">
					<dim>1</dim>
					<dim>1</dim>
					<dim>1</dim>
					<dim>1</dim>
				</port>
				<port id="3" precision="FP32">
					<dim>1</dim>
					<dim>1</dim>
					<dim>1</dim>
					<dim>1</dim>
				</port>
				<port id="4" precision="FP32">
					<dim>1</dim>
					<dim>1</dim>
					<dim>1</dim>
					<dim>1</dim>
				</port>
			</input>
			<output>
				<port id="5" precision="FP32" names="dq_output_203_1">
					<dim>79</dim>
					<dim>2</dim>
					<dim>1</dim>
					<dim>256</dim>
				</port>
			</output>
		</layer>
		<layer id="140" name="Constant_502" type="Const" version="opset1">
			<data element_type="i64" shape="4" offset="5596392" size="32" />
			<output>
				<port id="0" precision="I64">
					<dim>4</dim>
				</port>
			</output>
		</layer>
		<layer id="141" name="Transpose_32" type="Transpose" version="opset1">
			<input>
				<port id="0" precision="FP32">
					<dim>79</dim>
					<dim>2</dim>
					<dim>1</dim>
					<dim>256</dim>
				</port>
				<port id="1" precision="I64">
					<dim>4</dim>
				</port>
			</input>
			<output>
				<port id="2" precision="FP32" names="206">
					<dim>79</dim>
					<dim>1</dim>
					<dim>2</dim>
					<dim>256</dim>
				</port>
			</output>
		</layer>
		<layer id="142" name="Constant_33" type="Const" version="opset1">
			<data element_type="i64" shape="3" offset="5596424" size="24" />
			<output>
				<port id="0" precision="I64" names="207">
					<dim>3</dim>
				</port>
			</output>
		</layer>
		<layer id="143" name="Reshape_34" type="Reshape" version="opset1">
			<data special_zero="true" />
			<input>
				<port id="0" precision="FP32">
					<dim>79</dim>
					<dim>1</dim>
					<dim>2</dim>
					<dim>256</dim>
				</port>
				<port id="1" precision="I64">
					<dim>3</dim>
				</port>
			</input>
			<output>
				<port id="2" precision="FP32" names="208">
					<dim>79</dim>
					<dim>1</dim>
					<dim>512</dim>
				</port>
			</output>
		</layer>
		<layer id="144" name="Constant_508" type="Const" version="opset1">
			<data element_type="i64" shape="3" offset="1393828" size="24" />
			<output>
				<port id="0" precision="I64">
					<dim>3</dim>
				</port>
			</output>
		</layer>
		<layer id="145" name="Transpose_35" type="Transpose" version="opset1">
			<input>
				<port id="0" precision="FP32">
					<dim>79</dim>
					<dim>1</dim>
					<dim>512</dim>
				</port>
				<port id="1" precision="I64">
					<dim>3</dim>
				</port>
			</input>
			<output>
				<port id="2" precision="FP32" names="209">
					<dim>1</dim>
					<dim>79</dim>
					<dim>512</dim>
				</port>
			</output>
		</layer>
		<layer id="146" name="Constant_2087" type="Const" version="opset1">
			<data element_type="f32" shape="256, 512" offset="5596448" size="524288" />
			<output>
				<port id="0" precision="FP32">
					<dim>256</dim>
					<dim>512</dim>
				</port>
			</output>
		</layer>
		<layer id="147" name="MatMul_36" type="MatMul" version="opset1">
			<data transpose_a="false" transpose_b="true" />
			<input>
				<port id="0" precision="FP32">
					<dim>1</dim>
					<dim>79</dim>
					<dim>512</dim>
				</port>
				<port id="1" precision="FP32">
					<dim>256</dim>
					<dim>512</dim>
				</port>
			</input>
			<output>
				<port id="2" precision="FP32" names="211">
					<dim>1</dim>
					<dim>79</dim>
					<dim>256</dim>
				</port>
			</output>
		</layer>
		<layer id="148" name="Add_37" type="Add" version="opset1">
			<data auto_broadcast="numpy" />
			<input>
				<port id="0" precision="FP32">
					<dim>1</dim>
					<dim>1</dim>
					<dim>256</dim>
				</port>
				<port id="1" precision="FP32">
					<dim>1</dim>
					<dim>79</dim>
					<dim>256</dim>
				</port>
			</input>
			<output>
				<port id="2" precision="FP32" names="212">
					<dim>1</dim>
					<dim>79</dim>
					<dim>256</dim>
				</port>
			</output>
		</layer>
		<layer id="149" name="Constant_520" type="Const" version="opset1">
			<data element_type="f32" shape="" offset="2436" size="4" />
			<output>
				<port id="0" precision="FP32" />
			</output>
		</layer>
		<layer id="150" name="414" type="Const" version="opset1">
			<data element_type="i64" shape="1" offset="1393804" size="8" />
			<output>
				<port id="0" precision="I64" names="414">
					<dim>1</dim>
				</port>
			</output>
		</layer>
		<layer id="151" name="Shape_38" type="ShapeOf" version="opset3">
			<data output_type="i64" />
			<input>
				<port id="0" precision="FP32">
					<dim>1</dim>
					<dim>79</dim>
					<dim>256</dim>
				</port>
			</input>
			<output>
				<port id="1" precision="I64" names="213">
					<dim>3</dim>
				</port>
			</output>
		</layer>
		<layer id="152" name="Constant_2050" type="Const" version="opset1">
			<data element_type="i64" shape="1" offset="1393812" size="8" />
			<output>
				<port id="0" precision="I64">
					<dim>1</dim>
				</port>
			</output>
		</layer>
		<layer id="153" name="Constant_514" type="Const" version="opset1">
			<data element_type="i64" shape="" offset="1393812" size="8" />
			<output>
				<port id="0" precision="I64" />
			</output>
		</layer>
		<layer id="154" name="Gather_40" type="Gather" version="opset8">
			<data batch_dims="0" />
			<input>
				<port id="0" precision="I64">
					<dim>3</dim>
				</port>
				<port id="1" precision="I64">
					<dim>1</dim>
				</port>
				<port id="2" precision="I64" />
			</input>
			<output>
				<port id="3" precision="I64" names="219">
					<dim>1</dim>
				</port>
			</output>
		</layer>
		<layer id="155" name="415" type="Const" version="opset1">
			<data element_type="i64" shape="1" offset="1393820" size="8" />
			<output>
				<port id="0" precision="I64" names="415">
					<dim>1</dim>
				</port>
			</output>
		</layer>
		<layer id="156" name="Concat_42" type="Concat" version="opset1">
			<data axis="0" />
			<input>
				<port id="0" precision="I64">
					<dim>1</dim>
				</port>
				<port id="1" precision="I64">
					<dim>1</dim>
				</port>
				<port id="2" precision="I64">
					<dim>1</dim>
				</port>
			</input>
			<output>
				<port id="3" precision="I64" names="221">
					<dim>3</dim>
				</port>
			</output>
		</layer>
		<layer id="157" name="ConstantOfShape_43" type="Broadcast" version="opset3">
			<data mode="numpy" />
			<input>
				<port id="0" precision="FP32" />
				<port id="1" precision="I64">
					<dim>3</dim>
				</port>
			</input>
			<output>
				<port id="2" precision="FP32" names="222">
					<dim>2</dim>
					<dim>1</dim>
					<dim>256</dim>
				</port>
			</output>
		</layer>
		<layer id="158" name="Constant_563" type="Const" version="opset1">
			<data element_type="i64" shape="3" offset="1393828" size="24" />
			<output>
				<port id="0" precision="I64">
					<dim>3</dim>
				</port>
			</output>
		</layer>
		<layer id="159" name="Transpose_564" type="Transpose" version="opset1">
			<input>
				<port id="0" precision="FP32">
					<dim>2</dim>
					<dim>1</dim>
					<dim>256</dim>
				</port>
				<port id="1" precision="I64">
					<dim>3</dim>
				</port>
			</input>
			<output>
				<port id="2" precision="FP32">
					<dim>1</dim>
					<dim>2</dim>
					<dim>256</dim>
				</port>
			</output>
		</layer>
		<layer id="160" name="Constant_528" type="Const" version="opset1">
			<data element_type="f32" shape="" offset="2436" size="4" />
			<output>
				<port id="0" precision="FP32" />
			</output>
		</layer>
		<layer id="161" name="416" type="Const" version="opset1">
			<data element_type="i64" shape="1" offset="1393804" size="8" />
			<output>
				<port id="0" precision="I64" names="416">
					<dim>1</dim>
				</port>
			</output>
		</layer>
		<layer id="162" name="Constant_2056" type="Const" version="opset1">
			<data element_type="i64" shape="1" offset="1393812" size="8" />
			<output>
				<port id="0" precision="I64">
					<dim>1</dim>
				</port>
			</output>
		</layer>
		<layer id="163" name="Gather_400" type="Gather" version="opset8">
			<data batch_dims="0" />
			<input>
				<port id="0" precision="I64">
					<dim>3</dim>
				</port>
				<port id="1" precision="I64">
					<dim>1</dim>
				</port>
				<port id="2" precision="I64" />
			</input>
			<output>
				<port id="3" precision="I64" names="226">
					<dim>1</dim>
				</port>
			</output>
		</layer>
		<layer id="164" name="417" type="Const" version="opset1">
			<data element_type="i64" shape="1" offset="1393820" size="8" />
			<output>
				<port id="0" precision="I64" names="417">
					<dim>1</dim>
				</port>
			</output>
		</layer>
		<layer id="165" name="Concat_45" type="Concat" version="opset1">
			<data axis="0" />
			<input>
				<port id="0" precision="I64">
					<dim>1</dim>
				</port>
				<port id="1" precision="I64">
					<dim>1</dim>
				</port>
				<port id="2" precision="I64">
					<dim>1</dim>
				</port>
			</input>
			<output>
				<port id="3" precision="I64" names="228">
					<dim>3</dim>
				</port>
			</output>
		</layer>
		<layer id="166" name="ConstantOfShape_46" type="Broadcast" version="opset3">
			<data mode="numpy" />
			<input>
				<port id="0" precision="FP32" />
				<port id="1" precision="I64">
					<dim>3</dim>
				</port>
			</input>
			<output>
				<port id="2" precision="FP32" names="229">
					<dim>2</dim>
					<dim>1</dim>
					<dim>256</dim>
				</port>
			</output>
		</layer>
		<layer id="167" name="Constant_565" type="Const" version="opset1">
			<data element_type="i64" shape="3" offset="1393828" size="24" />
			<output>
				<port id="0" precision="I64">
					<dim>3</dim>
				</port>
			</output>
		</layer>
		<layer id="168" name="Transpose_566" type="Transpose" version="opset1">
			<input>
				<port id="0" precision="FP32">
					<dim>2</dim>
					<dim>1</dim>
					<dim>256</dim>
				</port>
				<port id="1" precision="I64">
					<dim>3</dim>
				</port>
			</input>
			<output>
				<port id="2" precision="FP32">
					<dim>1</dim>
					<dim>2</dim>
					<dim>256</dim>
				</port>
			</output>
		</layer>
		<layer id="169" name="ShapeOf_543" type="ShapeOf" version="opset3">
			<data output_type="i64" />
			<input>
				<port id="0" precision="FP32">
					<dim>1</dim>
					<dim>79</dim>
					<dim>256</dim>
				</port>
			</input>
			<output>
				<port id="1" precision="I64">
					<dim>3</dim>
				</port>
			</output>
		</layer>
		<layer id="170" name="Constant_547" type="Const" version="opset1">
			<data element_type="i32" shape="1" offset="1393852" size="4" />
			<output>
				<port id="0" precision="I32">
					<dim>1</dim>
				</port>
			</output>
		</layer>
		<layer id="171" name="Constant_544" type="Const" version="opset1">
			<data element_type="i32" shape="1" offset="2436" size="4" />
			<output>
				<port id="0" precision="I32">
					<dim>1</dim>
				</port>
			</output>
		</layer>
		<layer id="172" name="Gather_548" type="Gather" version="opset8">
			<data batch_dims="0" />
			<input>
				<port id="0" precision="I64">
					<dim>3</dim>
				</port>
				<port id="1" precision="I32">
					<dim>1</dim>
				</port>
				<port id="2" precision="I32">
					<dim>1</dim>
				</port>
			</input>
			<output>
				<port id="3" precision="I64">
					<dim>1</dim>
				</port>
			</output>
		</layer>
		<layer id="173" name="Constant_545" type="Const" version="opset1">
			<data element_type="i32" shape="1" offset="2436" size="4" />
			<output>
				<port id="0" precision="I32">
					<dim>1</dim>
				</port>
			</output>
		</layer>
		<layer id="174" name="Gather_546" type="Gather" version="opset8">
			<data batch_dims="0" />
			<input>
				<port id="0" precision="I64">
					<dim>3</dim>
				</port>
				<port id="1" precision="I32">
					<dim>1</dim>
				</port>
				<port id="2" precision="I32">
					<dim>1</dim>
				</port>
			</input>
			<output>
				<port id="3" precision="I64">
					<dim>1</dim>
				</port>
			</output>
		</layer>
		<layer id="175" name="Broadcast_560" type="Broadcast" version="opset3">
			<data mode="numpy" />
			<input>
				<port id="0" precision="I64">
					<dim>1</dim>
				</port>
				<port id="1" precision="I64">
					<dim>1</dim>
				</port>
			</input>
			<output>
				<port id="2" precision="I64">
					<dim>1</dim>
				</port>
			</output>
		</layer>
		<layer id="176" name="Concat_539" type="Const" version="opset1">
			<data element_type="f32" shape="2, 1024, 256" offset="6120736" size="2097152" />
			<output>
				<port id="0" precision="FP32">
					<dim>2</dim>
					<dim>1024</dim>
					<dim>256</dim>
				</port>
			</output>
		</layer>
		<layer id="177" name="Concat_542" type="Const" version="opset1">
			<data element_type="f32" shape="2, 1024, 256" offset="8217888" size="2097152" />
			<output>
				<port id="0" precision="FP32">
					<dim>2</dim>
					<dim>1024</dim>
					<dim>256</dim>
				</port>
			</output>
		</layer>
		<layer id="178" name="Concat_559" type="Const" version="opset1">
			<data element_type="f32" shape="2, 1024" offset="10315040" size="8192" />
			<output>
				<port id="0" precision="FP32">
					<dim>2</dim>
					<dim>1024</dim>
				</port>
			</output>
		</layer>
		<layer id="179" name="LSTMSequence_574" type="LSTMSequence" version="opset5">
			<data direction="bidirectional" hidden_size="256" activations="sigmoid, tanh, tanh" activations_alpha="" activations_beta="" clip="0" />
			<input>
				<port id="0" precision="FP32">
					<dim>1</dim>
					<dim>79</dim>
					<dim>256</dim>
				</port>
				<port id="1" precision="FP32">
					<dim>1</dim>
					<dim>2</dim>
					<dim>256</dim>
				</port>
				<port id="2" precision="FP32">
					<dim>1</dim>
					<dim>2</dim>
					<dim>256</dim>
				</port>
				<port id="3" precision="I64">
					<dim>1</dim>
				</port>
				<port id="4" precision="FP32">
					<dim>2</dim>
					<dim>1024</dim>
					<dim>256</dim>
				</port>
				<port id="5" precision="FP32">
					<dim>2</dim>
					<dim>1024</dim>
					<dim>256</dim>
				</port>
				<port id="6" precision="FP32">
					<dim>2</dim>
					<dim>1024</dim>
				</port>
			</input>
			<output>
				<port id="7" precision="FP32">
					<dim>1</dim>
					<dim>2</dim>
					<dim>79</dim>
					<dim>256</dim>
				</port>
				<port id="8" precision="FP32">
					<dim>1</dim>
					<dim>2</dim>
					<dim>256</dim>
				</port>
				<port id="9" precision="FP32">
					<dim>1</dim>
					<dim>2</dim>
					<dim>256</dim>
				</port>
			</output>
		</layer>
		<layer id="180" name="Constant_575" type="Const" version="opset1">
			<data element_type="i64" shape="4" offset="5596352" size="32" />
			<output>
				<port id="0" precision="I64">
					<dim>4</dim>
				</port>
			</output>
		</layer>
		<layer id="181" name="LSTM_48_347" type="Transpose" version="opset1">
			<input>
				<port id="0" precision="FP32">
					<dim>1</dim>
					<dim>2</dim>
					<dim>79</dim>
					<dim>256</dim>
				</port>
				<port id="1" precision="I64">
					<dim>4</dim>
				</port>
			</input>
			<output>
				<port id="2" precision="FP32" names="347">
					<dim>79</dim>
					<dim>2</dim>
					<dim>1</dim>
					<dim>256</dim>
				</port>
			</output>
		</layer>
		<layer id="182" name="Constant_2201" type="Const" version="opset1">
			<data element_type="f32" shape="1, 1, 1, 1" offset="10323232" size="4" />
			<output>
				<port id="0" precision="FP32">
					<dim>1</dim>
					<dim>1</dim>
					<dim>1</dim>
					<dim>1</dim>
				</port>
			</output>
		</layer>
		<layer id="183" name="Constant_2202" type="Const" version="opset1">
			<data element_type="f32" shape="1, 1, 1, 1" offset="10323236" size="4" />
			<output>
				<port id="0" precision="FP32">
					<dim>1</dim>
					<dim>1</dim>
					<dim>1</dim>
					<dim>1</dim>
				</port>
			</output>
		</layer>
		<layer id="184" name="Constant_2203" type="Const" version="opset1">
			<data element_type="f32" shape="1, 1, 1, 1" offset="10323232" size="4" />
			<output>
				<port id="0" precision="FP32">
					<dim>1</dim>
					<dim>1</dim>
					<dim>1</dim>
					<dim>1</dim>
				</port>
			</output>
		</layer>
		<layer id="185" name="Constant_2204" type="Const" version="opset1">
			<data element_type="f32" shape="1, 1, 1, 1" offset="10323236" size="4" />
			<output>
				<port id="0" precision="FP32">
					<dim>1</dim>
					<dim>1</dim>
					<dim>1</dim>
					<dim>1</dim>
				</port>
			</output>
		</layer>
		<layer id="186" name="DequantizeLinear_347_1" type="FakeQuantize" version="opset1">
			<data levels="256" auto_broadcast="numpy" />
			<input>
				<port id="0" precision="FP32">
					<dim>79</dim>
					<dim>2</dim>
					<dim>1</dim>
					<dim>256</dim>
				</port>
				<port id="1" precision="FP32">
					<dim>1</dim>
					<dim>1</dim>
					<dim>1</dim>
					<dim>1</dim>
				</port>
				<port id="2" precision="FP32">
					<dim>1</dim>
					<dim>1</dim>
					<dim>1</dim>
					<dim>1</dim>
				</port>
				<port id="3" precision="FP32">
					<dim>1</dim>
					<dim>1</dim>
					<dim>1</dim>
					<dim>1</dim>
				</port>
				<port id="4" precision="FP32">
					<dim>1</dim>
					<dim>1</dim>
					<dim>1</dim>
					<dim>1</dim>
				</port>
			</input>
			<output>
				<port id="5" precision="FP32" names="dq_output_347_1">
					<dim>79</dim>
					<dim>2</dim>
					<dim>1</dim>
					<dim>256</dim>
				</port>
			</output>
		</layer>
		<layer id="187" name="Constant_596" type="Const" version="opset1">
			<data element_type="i64" shape="4" offset="5596392" size="32" />
			<output>
				<port id="0" precision="I64">
					<dim>4</dim>
				</port>
			</output>
		</layer>
		<layer id="188" name="Transpose_49" type="Transpose" version="opset1">
			<input>
				<port id="0" precision="FP32">
					<dim>79</dim>
					<dim>2</dim>
					<dim>1</dim>
					<dim>256</dim>
				</port>
				<port id="1" precision="I64">
					<dim>4</dim>
				</port>
			</input>
			<output>
				<port id="2" precision="FP32" names="350">
					<dim>79</dim>
					<dim>1</dim>
					<dim>2</dim>
					<dim>256</dim>
				</port>
			</output>
		</layer>
		<layer id="189" name="Constant_50" type="Const" version="opset1">
			<data element_type="i64" shape="3" offset="5596424" size="24" />
			<output>
				<port id="0" precision="I64" names="351">
					<dim>3</dim>
				</port>
			</output>
		</layer>
		<layer id="190" name="Reshape_51" type="Reshape" version="opset1">
			<data special_zero="true" />
			<input>
				<port id="0" precision="FP32">
					<dim>79</dim>
					<dim>1</dim>
					<dim>2</dim>
					<dim>256</dim>
				</port>
				<port id="1" precision="I64">
					<dim>3</dim>
				</port>
			</input>
			<output>
				<port id="2" precision="FP32" names="352">
					<dim>79</dim>
					<dim>1</dim>
					<dim>512</dim>
				</port>
			</output>
		</layer>
		<layer id="191" name="Constant_602" type="Const" version="opset1">
			<data element_type="i64" shape="3" offset="1393828" size="24" />
			<output>
				<port id="0" precision="I64">
					<dim>3</dim>
				</port>
			</output>
		</layer>
		<layer id="192" name="Transpose_52" type="Transpose" version="opset1">
			<input>
				<port id="0" precision="FP32">
					<dim>79</dim>
					<dim>1</dim>
					<dim>512</dim>
				</port>
				<port id="1" precision="I64">
					<dim>3</dim>
				</port>
			</input>
			<output>
				<port id="2" precision="FP32" names="353">
					<dim>1</dim>
					<dim>79</dim>
					<dim>512</dim>
				</port>
			</output>
		</layer>
		<layer id="193" name="Constant_2091" type="Const" version="opset1">
			<data element_type="f32" shape="256, 512" offset="10323240" size="524288" />
			<output>
				<port id="0" precision="FP32">
					<dim>256</dim>
					<dim>512</dim>
				</port>
			</output>
		</layer>
		<layer id="194" name="MatMul_53" type="MatMul" version="opset1">
			<data transpose_a="false" transpose_b="true" />
			<input>
				<port id="0" precision="FP32">
					<dim>1</dim>
					<dim>79</dim>
					<dim>512</dim>
				</port>
				<port id="1" precision="FP32">
					<dim>256</dim>
					<dim>512</dim>
				</port>
			</input>
			<output>
				<port id="2" precision="FP32" names="355">
					<dim>1</dim>
					<dim>79</dim>
					<dim>256</dim>
				</port>
			</output>
		</layer>
		<layer id="195" name="Add_54" type="Add" version="opset1">
			<data auto_broadcast="numpy" />
			<input>
				<port id="0" precision="FP32">
					<dim>1</dim>
					<dim>1</dim>
					<dim>256</dim>
				</port>
				<port id="1" precision="FP32">
					<dim>1</dim>
					<dim>79</dim>
					<dim>256</dim>
				</port>
			</input>
			<output>
				<port id="2" precision="FP32" names="356">
					<dim>1</dim>
					<dim>79</dim>
					<dim>256</dim>
				</port>
			</output>
		</layer>
		<layer id="196" name="Constant_2206" type="Const" version="opset1">
			<data element_type="f32" shape="1, 1, 1" offset="10847528" size="4" />
			<output>
				<port id="0" precision="FP32">
					<dim>1</dim>
					<dim>1</dim>
					<dim>1</dim>
				</port>
			</output>
		</layer>
		<layer id="197" name="Constant_2207" type="Const" version="opset1">
			<data element_type="f32" shape="1, 1, 1" offset="10847532" size="4" />
			<output>
				<port id="0" precision="FP32">
					<dim>1</dim>
					<dim>1</dim>
					<dim>1</dim>
				</port>
			</output>
		</layer>
		<layer id="198" name="Constant_2208" type="Const" version="opset1">
			<data element_type="f32" shape="1, 1, 1" offset="10847528" size="4" />
			<output>
				<port id="0" precision="FP32">
					<dim>1</dim>
					<dim>1</dim>
					<dim>1</dim>
				</port>
			</output>
		</layer>
		<layer id="199" name="Constant_2209" type="Const" version="opset1">
			<data element_type="f32" shape="1, 1, 1" offset="10847532" size="4" />
			<output>
				<port id="0" precision="FP32">
					<dim>1</dim>
					<dim>1</dim>
					<dim>1</dim>
				</port>
			</output>
		</layer>
		<layer id="200" name="DequantizeLinear_356_1" type="FakeQuantize" version="opset1">
			<data levels="256" auto_broadcast="numpy" />
			<input>
				<port id="0" precision="FP32">
					<dim>1</dim>
					<dim>79</dim>
					<dim>256</dim>
				</port>
				<port id="1" precision="FP32">
					<dim>1</dim>
					<dim>1</dim>
					<dim>1</dim>
				</port>
				<port id="2" precision="FP32">
					<dim>1</dim>
					<dim>1</dim>
					<dim>1</dim>
				</port>
				<port id="3" precision="FP32">
					<dim>1</dim>
					<dim>1</dim>
					<dim>1</dim>
				</port>
				<port id="4" precision="FP32">
					<dim>1</dim>
					<dim>1</dim>
					<dim>1</dim>
				</port>
			</input>
			<output>
				<port id="5" precision="FP32" names="dq_output_356_1">
					<dim>1</dim>
					<dim>79</dim>
					<dim>256</dim>
				</port>
			</output>
		</layer>
		<layer id="201" name="Constant_2095" type="Const" version="opset1">
			<data element_type="f32" shape="97, 256" offset="10847536" size="99328" />
			<output>
				<port id="0" precision="FP32">
					<dim>97</dim>
					<dim>256</dim>
				</port>
			</output>
		</layer>
		<layer id="202" name="MatMul_55" type="MatMul" version="opset1">
			<data transpose_a="false" transpose_b="true" />
			<input>
				<port id="0" precision="FP32">
					<dim>1</dim>
					<dim>79</dim>
					<dim>256</dim>
				</port>
				<port id="1" precision="FP32">
					<dim>97</dim>
					<dim>256</dim>
				</port>
			</input>
			<output>
				<port id="2" precision="FP32" names="358">
					<dim>1</dim>
					<dim>79</dim>
					<dim>97</dim>
				</port>
			</output>
		</layer>
		<layer id="203" name="output" type="Add" version="opset1">
			<data auto_broadcast="numpy" />
			<input>
				<port id="0" precision="FP32">
					<dim>1</dim>
					<dim>1</dim>
					<dim>97</dim>
				</port>
				<port id="1" precision="FP32">
					<dim>1</dim>
					<dim>79</dim>
					<dim>97</dim>
				</port>
			</input>
			<output>
				<port id="2" precision="FP32" names="output">
					<dim>1</dim>
					<dim>79</dim>
					<dim>97</dim>
				</port>
			</output>
		</layer>
		<layer id="204" name="output/sink_port_0" type="Result" version="opset1">
			<input>
				<port id="0" precision="FP32">
					<dim>1</dim>
					<dim>79</dim>
					<dim>97</dim>
				</port>
			</input>
		</layer>
	</layers>
	<edges>
		<edge from-layer="0" from-port="0" to-layer="8" to-port="0" />
		<edge from-layer="1" from-port="0" to-layer="203" to-port="0" />
		<edge from-layer="2" from-port="0" to-layer="195" to-port="0" />
		<edge from-layer="3" from-port="0" to-layer="148" to-port="0" />
		<edge from-layer="4" from-port="0" to-layer="8" to-port="1" />
		<edge from-layer="5" from-port="0" to-layer="8" to-port="2" />
		<edge from-layer="6" from-port="0" to-layer="8" to-port="3" />
		<edge from-layer="7" from-port="0" to-layer="8" to-port="4" />
		<edge from-layer="8" from-port="5" to-layer="13" to-port="0" />
		<edge from-layer="9" from-port="0" to-layer="10" to-port="0" />
		<edge from-layer="10" from-port="1" to-layer="12" to-port="0" />
		<edge from-layer="11" from-port="0" to-layer="12" to-port="1" />
		<edge from-layer="12" from-port="2" to-layer="13" to-port="1" />
		<edge from-layer="13" from-port="2" to-layer="15" to-port="0" />
		<edge from-layer="14" from-port="0" to-layer="15" to-port="1" />
		<edge from-layer="15" from-port="2" to-layer="20" to-port="0" />
		<edge from-layer="16" from-port="0" to-layer="20" to-port="1" />
		<edge from-layer="17" from-port="0" to-layer="20" to-port="2" />
		<edge from-layer="18" from-port="0" to-layer="20" to-port="3" />
		<edge from-layer="19" from-port="0" to-layer="20" to-port="4" />
		<edge from-layer="20" from-port="5" to-layer="21" to-port="0" />
		<edge from-layer="21" from-port="1" to-layer="26" to-port="0" />
		<edge from-layer="22" from-port="0" to-layer="23" to-port="0" />
		<edge from-layer="23" from-port="1" to-layer="25" to-port="0" />
		<edge from-layer="24" from-port="0" to-layer="25" to-port="1" />
		<edge from-layer="25" from-port="2" to-layer="26" to-port="1" />
		<edge from-layer="26" from-port="2" to-layer="28" to-port="0" />
		<edge from-layer="27" from-port="0" to-layer="28" to-port="1" />
		<edge from-layer="28" from-port="2" to-layer="33" to-port="0" />
		<edge from-layer="29" from-port="0" to-layer="33" to-port="1" />
		<edge from-layer="30" from-port="0" to-layer="33" to-port="2" />
		<edge from-layer="31" from-port="0" to-layer="33" to-port="3" />
		<edge from-layer="32" from-port="0" to-layer="33" to-port="4" />
		<edge from-layer="33" from-port="5" to-layer="34" to-port="0" />
		<edge from-layer="34" from-port="1" to-layer="39" to-port="0" />
		<edge from-layer="35" from-port="0" to-layer="36" to-port="0" />
		<edge from-layer="36" from-port="1" to-layer="38" to-port="0" />
		<edge from-layer="37" from-port="0" to-layer="38" to-port="1" />
		<edge from-layer="38" from-port="2" to-layer="39" to-port="1" />
		<edge from-layer="39" from-port="2" to-layer="41" to-port="0" />
		<edge from-layer="40" from-port="0" to-layer="41" to-port="1" />
		<edge from-layer="41" from-port="2" to-layer="46" to-port="0" />
		<edge from-layer="42" from-port="0" to-layer="46" to-port="1" />
		<edge from-layer="43" from-port="0" to-layer="46" to-port="2" />
		<edge from-layer="44" from-port="0" to-layer="46" to-port="3" />
		<edge from-layer="45" from-port="0" to-layer="46" to-port="4" />
		<edge from-layer="46" from-port="5" to-layer="51" to-port="0" />
		<edge from-layer="47" from-port="0" to-layer="48" to-port="0" />
		<edge from-layer="48" from-port="1" to-layer="50" to-port="0" />
		<edge from-layer="49" from-port="0" to-layer="50" to-port="1" />
		<edge from-layer="50" from-port="2" to-layer="51" to-port="1" />
		<edge from-layer="51" from-port="2" to-layer="53" to-port="0" />
		<edge from-layer="52" from-port="0" to-layer="53" to-port="1" />
		<edge from-layer="53" from-port="2" to-layer="58" to-port="0" />
		<edge from-layer="54" from-port="0" to-layer="58" to-port="1" />
		<edge from-layer="55" from-port="0" to-layer="58" to-port="2" />
		<edge from-layer="56" from-port="0" to-layer="58" to-port="3" />
		<edge from-layer="57" from-port="0" to-layer="58" to-port="4" />
		<edge from-layer="58" from-port="5" to-layer="59" to-port="0" />
		<edge from-layer="59" from-port="1" to-layer="64" to-port="0" />
		<edge from-layer="60" from-port="0" to-layer="61" to-port="0" />
		<edge from-layer="61" from-port="1" to-layer="63" to-port="0" />
		<edge from-layer="62" from-port="0" to-layer="63" to-port="1" />
		<edge from-layer="63" from-port="2" to-layer="64" to-port="1" />
		<edge from-layer="64" from-port="2" to-layer="66" to-port="0" />
		<edge from-layer="65" from-port="0" to-layer="66" to-port="1" />
		<edge from-layer="66" from-port="2" to-layer="71" to-port="0" />
		<edge from-layer="67" from-port="0" to-layer="71" to-port="1" />
		<edge from-layer="68" from-port="0" to-layer="71" to-port="2" />
		<edge from-layer="69" from-port="0" to-layer="71" to-port="3" />
		<edge from-layer="70" from-port="0" to-layer="71" to-port="4" />
		<edge from-layer="71" from-port="5" to-layer="76" to-port="0" />
		<edge from-layer="72" from-port="0" to-layer="73" to-port="0" />
		<edge from-layer="73" from-port="1" to-layer="75" to-port="0" />
		<edge from-layer="74" from-port="0" to-layer="75" to-port="1" />
		<edge from-layer="75" from-port="2" to-layer="76" to-port="1" />
		<edge from-layer="76" from-port="2" to-layer="78" to-port="0" />
		<edge from-layer="77" from-port="0" to-layer="78" to-port="1" />
		<edge from-layer="78" from-port="2" to-layer="83" to-port="0" />
		<edge from-layer="79" from-port="0" to-layer="83" to-port="1" />
		<edge from-layer="80" from-port="0" to-layer="83" to-port="2" />
		<edge from-layer="81" from-port="0" to-layer="83" to-port="3" />
		<edge from-layer="82" from-port="0" to-layer="83" to-port="4" />
		<edge from-layer="83" from-port="5" to-layer="84" to-port="0" />
		<edge from-layer="84" from-port="1" to-layer="89" to-port="0" />
		<edge from-layer="85" from-port="0" to-layer="86" to-port="0" />
		<edge from-layer="86" from-port="1" to-layer="88" to-port="0" />
		<edge from-layer="87" from-port="0" to-layer="88" to-port="1" />
		<edge from-layer="88" from-port="2" to-layer="89" to-port="1" />
		<edge from-layer="89" from-port="2" to-layer="91" to-port="0" />
		<edge from-layer="90" from-port="0" to-layer="91" to-port="1" />
		<edge from-layer="91" from-port="2" to-layer="96" to-port="0" />
		<edge from-layer="92" from-port="0" to-layer="96" to-port="1" />
		<edge from-layer="93" from-port="0" to-layer="96" to-port="2" />
		<edge from-layer="94" from-port="0" to-layer="96" to-port="3" />
		<edge from-layer="95" from-port="0" to-layer="96" to-port="4" />
		<edge from-layer="96" from-port="5" to-layer="98" to-port="0" />
		<edge from-layer="97" from-port="0" to-layer="98" to-port="1" />
		<edge from-layer="98" from-port="2" to-layer="99" to-port="0" />
		<edge from-layer="99" from-port="1" to-layer="101" to-port="0" />
		<edge from-layer="100" from-port="0" to-layer="101" to-port="1" />
		<edge from-layer="101" from-port="2" to-layer="122" to-port="0" />
		<edge from-layer="101" from-port="2" to-layer="132" to-port="0" />
		<edge from-layer="101" from-port="2" to-layer="104" to-port="0" />
		<edge from-layer="102" from-port="0" to-layer="110" to-port="0" />
		<edge from-layer="103" from-port="0" to-layer="109" to-port="0" />
		<edge from-layer="104" from-port="1" to-layer="116" to-port="0" />
		<edge from-layer="104" from-port="1" to-layer="107" to-port="0" />
		<edge from-layer="105" from-port="0" to-layer="107" to-port="1" />
		<edge from-layer="106" from-port="0" to-layer="107" to-port="2" />
		<edge from-layer="106" from-port="0" to-layer="116" to-port="2" />
		<edge from-layer="107" from-port="3" to-layer="109" to-port="1" />
		<edge from-layer="108" from-port="0" to-layer="109" to-port="2" />
		<edge from-layer="109" from-port="3" to-layer="110" to-port="1" />
		<edge from-layer="110" from-port="2" to-layer="112" to-port="0" />
		<edge from-layer="111" from-port="0" to-layer="112" to-port="1" />
		<edge from-layer="112" from-port="2" to-layer="132" to-port="1" />
		<edge from-layer="113" from-port="0" to-layer="119" to-port="0" />
		<edge from-layer="114" from-port="0" to-layer="118" to-port="0" />
		<edge from-layer="115" from-port="0" to-layer="116" to-port="1" />
		<edge from-layer="116" from-port="3" to-layer="118" to-port="1" />
		<edge from-layer="117" from-port="0" to-layer="118" to-port="2" />
		<edge from-layer="118" from-port="3" to-layer="119" to-port="1" />
		<edge from-layer="119" from-port="2" to-layer="121" to-port="0" />
		<edge from-layer="120" from-port="0" to-layer="121" to-port="1" />
		<edge from-layer="121" from-port="2" to-layer="132" to-port="2" />
		<edge from-layer="122" from-port="1" to-layer="127" to-port="0" />
		<edge from-layer="122" from-port="1" to-layer="125" to-port="0" />
		<edge from-layer="123" from-port="0" to-layer="125" to-port="1" />
		<edge from-layer="124" from-port="0" to-layer="127" to-port="2" />
		<edge from-layer="124" from-port="0" to-layer="125" to-port="2" />
		<edge from-layer="125" from-port="3" to-layer="128" to-port="0" />
		<edge from-layer="126" from-port="0" to-layer="127" to-port="1" />
		<edge from-layer="127" from-port="3" to-layer="128" to-port="1" />
		<edge from-layer="128" from-port="2" to-layer="132" to-port="3" />
		<edge from-layer="129" from-port="0" to-layer="132" to-port="4" />
		<edge from-layer="130" from-port="0" to-layer="132" to-port="5" />
		<edge from-layer="131" from-port="0" to-layer="132" to-port="6" />
		<edge from-layer="132" from-port="7" to-layer="134" to-port="0" />
		<edge from-layer="133" from-port="0" to-layer="134" to-port="1" />
		<edge from-layer="134" from-port="2" to-layer="139" to-port="0" />
		<edge from-layer="135" from-port="0" to-layer="139" to-port="1" />
		<edge from-layer="136" from-port="0" to-layer="139" to-port="2" />
		<edge from-layer="137" from-port="0" to-layer="139" to-port="3" />
		<edge from-layer="138" from-port="0" to-layer="139" to-port="4" />
		<edge from-layer="139" from-port="5" to-layer="141" to-port="0" />
		<edge from-layer="140" from-port="0" to-layer="141" to-port="1" />
		<edge from-layer="141" from-port="2" to-layer="143" to-port="0" />
		<edge from-layer="142" from-port="0" to-layer="143" to-port="1" />
		<edge from-layer="143" from-port="2" to-layer="145" to-port="0" />
		<edge from-layer="144" from-port="0" to-layer="145" to-port="1" />
		<edge from-layer="145" from-port="2" to-layer="147" to-port="0" />
		<edge from-layer="146" from-port="0" to-layer="147" to-port="1" />
		<edge from-layer="147" from-port="2" to-layer="148" to-port="1" />
		<edge from-layer="148" from-port="2" to-layer="169" to-port="0" />
		<edge from-layer="148" from-port="2" to-layer="179" to-port="0" />
		<edge from-layer="148" from-port="2" to-layer="151" to-port="0" />
		<edge from-layer="149" from-port="0" to-layer="157" to-port="0" />
		<edge from-layer="150" from-port="0" to-layer="156" to-port="0" />
		<edge from-layer="151" from-port="1" to-layer="163" to-port="0" />
		<edge from-layer="151" from-port="1" to-layer="154" to-port="0" />
		<edge from-layer="152" from-port="0" to-layer="154" to-port="1" />
		<edge from-layer="153" from-port="0" to-layer="154" to-port="2" />
		<edge from-layer="153" from-port="0" to-layer="163" to-port="2" />
		<edge from-layer="154" from-port="3" to-layer="156" to-port="1" />
		<edge from-layer="155" from-port="0" to-layer="156" to-port="2" />
		<edge from-layer="156" from-port="3" to-layer="157" to-port="1" />
		<edge from-layer="157" from-port="2" to-layer="159" to-port="0" />
		<edge from-layer="158" from-port="0" to-layer="159" to-port="1" />
		<edge from-layer="159" from-port="2" to-layer="179" to-port="1" />
		<edge from-layer="160" from-port="0" to-layer="166" to-port="0" />
		<edge from-layer="161" from-port="0" to-layer="165" to-port="0" />
		<edge from-layer="162" from-port="0" to-layer="163" to-port="1" />
		<edge from-layer="163" from-port="3" to-layer="165" to-port="1" />
		<edge from-layer="164" from-port="0" to-layer="165" to-port="2" />
		<edge from-layer="165" from-port="3" to-layer="166" to-port="1" />
		<edge from-layer="166" from-port="2" to-layer="168" to-port="0" />
		<edge from-layer="167" from-port="0" to-layer="168" to-port="1" />
		<edge from-layer="168" from-port="2" to-layer="179" to-port="2" />
		<edge from-layer="169" from-port="1" to-layer="174" to-port="0" />
		<edge from-layer="169" from-port="1" to-layer="172" to-port="0" />
		<edge from-layer="170" from-port="0" to-layer="172" to-port="1" />
		<edge from-layer="171" from-port="0" to-layer="174" to-port="2" />
		<edge from-layer="171" from-port="0" to-layer="172" to-port="2" />
		<edge from-layer="172" from-port="3" to-layer="175" to-port="0" />
		<edge from-layer="173" from-port="0" to-layer="174" to-port="1" />
		<edge from-layer="174" from-port="3" to-layer="175" to-port="1" />
		<edge from-layer="175" from-port="2" to-layer="179" to-port="3" />
		<edge from-layer="176" from-port="0" to-layer="179" to-port="4" />
		<edge from-layer="177" from-port="0" to-layer="179" to-port="5" />
		<edge from-layer="178" from-port="0" to-layer="179" to-port="6" />
		<edge from-layer="179" from-port="7" to-layer="181" to-port="0" />
		<edge from-layer="180" from-port="0" to-layer="181" to-port="1" />
		<edge from-layer="181" from-port="2" to-layer="186" to-port="0" />
		<edge from-layer="182" from-port="0" to-layer="186" to-port="1" />
		<edge from-layer="183" from-port="0" to-layer="186" to-port="2" />
		<edge from-layer="184" from-port="0" to-layer="186" to-port="3" />
		<edge from-layer="185" from-port="0" to-layer="186" to-port="4" />
		<edge from-layer="186" from-port="5" to-layer="188" to-port="0" />
		<edge from-layer="187" from-port="0" to-layer="188" to-port="1" />
		<edge from-layer="188" from-port="2" to-layer="190" to-port="0" />
		<edge from-layer="189" from-port="0" to-layer="190" to-port="1" />
		<edge from-layer="190" from-port="2" to-layer="192" to-port="0" />
		<edge from-layer="191" from-port="0" to-layer="192" to-port="1" />
		<edge from-layer="192" from-port="2" to-layer="194" to-port="0" />
		<edge from-layer="193" from-port="0" to-layer="194" to-port="1" />
		<edge from-layer="194" from-port="2" to-layer="195" to-port="1" />
		<edge from-layer="195" from-port="2" to-layer="200" to-port="0" />
		<edge from-layer="196" from-port="0" to-layer="200" to-port="1" />
		<edge from-layer="197" from-port="0" to-layer="200" to-port="2" />
		<edge from-layer="198" from-port="0" to-layer="200" to-port="3" />
		<edge from-layer="199" from-port="0" to-layer="200" to-port="4" />
		<edge from-layer="200" from-port="5" to-layer="202" to-port="0" />
		<edge from-layer="201" from-port="0" to-layer="202" to-port="1" />
		<edge from-layer="202" from-port="2" to-layer="203" to-port="1" />
		<edge from-layer="203" from-port="2" to-layer="204" to-port="0" />
	</edges>
	<rt_info>
		<MO_version value="2023.0.1-11005-fa1c41994f3-releases/2023/0" />
		<Runtime_version value="2023.0.1-11005-fa1c41994f3-releases/2023/0" />
		<conversion_parameters>
			<input_model value="DIR/1_recognition_model_int8.onnx" />
			<input_shape value="[1,1,64,320]" />
			<is_python_api_used value="False" />
			<output_dir value="DIR" />
		</conversion_parameters>
		<legacy_frontend value="False" />
	</rt_info>
</net>
